07_Transformers/Shakespearean_model_3003.npz (npz, 862594 bytes, 16 tensors)

param_0 f4 [128, 128]
0.12168663 -0.024249751 0.076129235 -5.243776e-05 0.08562526 0.079903685 0.055998664 0.004904701
-0.00947551 -0.0098380055 -0.041660756 0.027528383 0.012460344 0.15017131 0.00020306215 -0.022589779
0.08988717 0.04837911 -0.071785636 -0.20006974 0.030475808 0.053578112 -0.03834005 0.027680727
0.0009522919 0.036699187 0.047933567 -0.089613594 -0.03626973 -0.018288646 -0.034967415 0.0042802696
0.0019494974 -0.0393506 0.02488625 -0.04846727 -0.02678564 -0.102234855 -0.017855274 0.08199212
-0.03029983 -0.077969834 -0.028226016 0.031544317 -0.07291536 -0.20224322 0.118159205 0.14015314
-0.011176157 0.026806599 0.0024323068 0.032126196 -0.0031086823 -0.015099603 -6.325926e-05 0.017588543
0.071419336 -0.007261892 0.024416702 0.035996344 0.0017323098 -0.078913786 -0.12691543 -0.021697743
-0.014767035 -0.055847418 -0.0068329573 -0.011064402 -0.010408223 0.02263534 0.0140061695 -0.017783584
-0.06395375 -0.0007014345 0.08446991 -0.04224382 0.031080706 -0.0024363778 0.028624507 -0.07289459
0.17195062 -0.16547577 -0.027190182 -0.005727048 -0.05333637 -0.13011532 -0.054763235 -0.03299513
-0.05525532 -0.008030871 0.0006823617 0.05555861 -0.073407486 -0.0055074147 -0.019810481 -0.009311525
-0.27448085 0.1823931 -0.018722547 -0.0070662475 0.086328276 0.08099242 0.01586793 -0.057380527
0.0006285633 -0.012003297 -0.06421858 -0.043455895 -0.014788504 -0.043230478 -0.048596215 0.03825732
0.0641427 0.018189916 -0.049214695 0.10287945 -0.00030314547 0.077823035 0.062453296 -0.058958326
-0.006551048 -0.04186767 0.021595174 0.0016971641 -0.0025348128 -0.033743054 -0.047490016 0.09339684
0.05021472 0.039075356 0.12638392 -0.016336583 -0.0896211 0.002393824 -0.010583358 0.044885464
0.028191648 0.026760858 0.010526554 0.029903024 0.053877376 -0.032285985 0.009304475 -0.02498273
0.063612804 -0.044098962 -0.03966719 -0.17041925 -0.07007157 -0.06833359 -0.019458529 0.0612586
-0.049272288 6.225914e-05 -0.0031945098 -0.004677619 0.03019832 -0.012422262 0.00953811 0.030521562
-0.031124946 -0.071842335 0.025196502 0.035398938 -0.06818367 -0.029083066 0.076796666 0.012682077
-0.01011468 0.036115877 0.08227415 0.0014408809 -0.035739843 0.11784232 -0.053964067 0.14765343
0.034925595 -0.049899366 0.06515563 -0.03549483 0.048200496 -0.04089166 0.042404342 -0.082542256
0.05859323 -0.03248154 -0.04538046 -0.059156254 -0.057388604 -0.058855698 -0.02847098 0.0453699
0.0016386023 -0.097926706 -0.026884194 0.0013703819 0.059650384 0.031727288 0.005253776 -0.03712382
-0.04728887 -0.01288944 -0.04936754 -0.021565972 -0.00081541034 -0.051032264 0.0014166959 -0.03983813
-0.037186768 0.14323868 0.1011551 0.030645248 0.24845205 -0.031210713 -0.2372114 -0.111237906
0.009093556 0.009421564 -0.05596451 0.004638467 -0.04742827 -0.041798614 -0.015441838 0.003387237
0.013514806 0.05723339 0.059875187 -0.043807544 -0.0014904875 0.029045586 -0.06691661 -0.03309072
0.03458147 -0.042228874 -0.10125227 0.0243905 0.01930775 -0.039431714 0.08104206 0.051856816
0.071438946 -0.020833978 -0.042937465 0.04518688 -0.040960073 0.052906256 -0.04893413 0.045289617
0.027133575 0.06738323 -0.05980363 0.04702213 0.021326674 -0.044643298 -0.027381912 0.05765464
00000000: d736 f93d 6aa7 c6bc a5e9 9b3d 9ef0 5bb8
00000010: 4c5c af3d 8ba4 a33d db5e 653d 9db7 a03b
00000020: 2b3f 1bbc 962f 21bc 78a4 2abd 3483 e13c
00000030: 7826 4c3c 82c6 193e 15ed 5439 330e b9bc
00000040: c416 b83d 2c29 463d 5904 93bd 15df 4cbe
00000050: 67a8 f93c b974 5b3d 750a 1dbd b1c2 e23c
00000060: 3aa3 793a e351 163d fd55 443d 5587 b7bd
00000070: 928f 14bd 12d2 95bc fe39 0fbd 8141 8c3b
00000080: 4786 ff3a 182e 21bd 40de cb3c 9e85 46bd
00000090: 8f6d dbbc 8260 d1bd 3945 92bc 7ceb a73d
000000a0: 5937 f8bc a6ae 9fbd 3f3a e7bc 9d34 013d
000000b0: a654 95bd d918 4fbe 74fd f13d 4e84 0f3e
000000c0: 331c 37bc 8399 db3c 5667 1f3b c296 033d
000000d0: 09bb 4bbb 5364 77bc 0eaa 84b8 d915 903c
000000e0: 4d44 923d 2af5 edbb 8905 c83c e770 133d
000000f0: ac0e e33a 8d9d a1bd 1ef6 01be 77bf b1bc
00000100: 6ff1 71bc 43c0 64bd 00e7 dfbb 7747 35bc
00000110: 4087 2abc c06d b93c 227a 653c e1ae 91bc
00000120: 2ffa 82bd 79e0 37ba 8ffe ac3d db07 2dbd
00000130: f79c fe3c a3ab 1fbb f17d ea3c c249 95bd
00000140: d313 303e 7b72 29be f2bd debc f6a9 bbbb
00000150: 3d77 5abd f33c 05be 6a4f 60bd e725 07bd
00000160: 6753 62bd ea93 03bc 85e0 323a 6d91 633d
00000170: aa56 96bd 8b77 b4bb 9749 a2bc 5e8f 18bc
00000180: c188 8cbe 42c5 3a3e 0760 99bc fb8b e7bb
00000190: e1cc b03d 5bdf a53d 76fd 813c d807 6bbd
000001a0: 2bc6 243a 7aa9 44bc 0885 83bd cffe 31bd
000001b0: 7b4b 72bc 7112 31bd d30c 47bd b5b3 1c3d
000001c0: 3f5d 833d 0503 953c 5995 49bd 76b2 d23d
000001d0: 7fef 9eb9 af61 9f3d 07cf 7f3d 497e 71bd
000001e0: 2caa d6bb 6f7d 2bbd 5de8 b03c 6173 de3a
000001f0: 1a1f 26bb 2836 0abd e484 42bd d846 bf3d
00000200: f3ad 4d3d 7b0d 203d c96a 013e 4cd4 85bc
00000210: 448b b7bd b4e1 1c3b d265 2dbc d2d9 373d
00000220: 2cf2 e63c 9639 db3c 9177 2c3c 30f7 f43c
00000230: 86ae 5c3d 4f3e 04bd cc71 183c 95a8 ccbc
00000240: 6e47 823d 1da1 34bd 107a 22bd 6282 2ebe
00000250: af81 8fbd 7bf2 8bbd 7e67 9fbc 4cea 7a3d
00000260: bdd1 49bd 1f91 8238 fb5a 51bb b646 99bb
00000270: 7862 f73c be86 4bbc bc45 1c3c 5b08 fa3c
00000280: bef9 febc 1322 93bd e568 ce3c 7afe 103d
00000290: e1a3 8bbd 9c3f eebc 9247 9d3d 7cc8 4f3c
000002a0: 0bb8 25bc 3eee 133d 597f a83d f1db bc3a
000002b0: f163 12bd 5057 f13d 6d09 5dbd 7632 173e
000002c0: 240e 0f3d 4763 4cbd 5170 853d 0763 11bd
000002d0: e26d 453d 037e 27bd 2db0 2d3d ea0b a9bd
000002e0: 74ff 6f3d 5d0b 05bd dce0 39bd d44d 72bd
000002f0: 5010 6bbd ac12 71bd f93b e9bc cad5 393d
00000300: 5fc6 d63a cc8d c8bd 3e3c dcbc 639e b33a
00000310: f653 743d 79f4 013d de27 ac3b 260f 18bd
00000320: f9b1 41bd 3b2e 53bc 9e35 4abd 1fab b0bc
00000330: 43c1 55ba 3507 51bd 6db0 b93a 4f2d 23bd
00000340: 2751 18bd 29ad 123e 682a cf3d be0b fb3c
00000350: 376a 7e3e 9cad ffbc 8ce7 72be b3d0 e3bd
00000360: 23fd 143c e75c 1a3c 0b3b 65bd 48fe 973b
00000370: 2544 42bd 0635 2bbd c3ff 7cbc 68fc 5d3b
00000380: 346d 5d3c 8f6d 6a3d af3f 753d 8a6f 33bd
00000390: 765c c3ba 02f1 ed3c 930b 89bd 238a 07bd
000003a0: 4da5 0d3d 2ff8 2cbd 5a5d cfbd 96ce c73c
000003b0: 492b 9e3c 2683 21bd 61f9 a53d d067 543d
000003c0: 954e 923d 05ac aabc 32df 2fbd e115 393d
000003d0: c0c5 27bd 3bb4 583d 286f 48bd 9b81 393d
000003e0: 3b47 de3c 3800 8a3d a7f4 74bd 479a 403d
000003f0: 47b5 ae3c e4db 36bd 0850 e0bc 4627 6c3d

param_1 f4 [128, 128]
-0.044919956 -0.06995392 0.3134948 -0.056708477 -0.24849045 -0.09323907 -0.29987782 0.046819344
-0.0342882 -0.029630644 -0.030532852 -0.017345803 -0.012946456 0.15845859 0.012748474 -0.0100722965
0.03309895 0.23593627 0.12358337 -0.10960428 0.1833429 0.18182217 0.110641934 0.020599423
0.005006573 -0.0043376223 0.01773751 0.062284876 0.0005304091 0.028840216 -0.0074367863 -0.04713626
0.22230159 -0.001891849 -0.29884887 -0.23551749 0.08039009 -0.13256463 -0.021920294 0.10418555
0.012668299 0.30319157 0.24699673 -0.115154594 -0.07667595 0.1459106 -0.23795101 0.20774274
0.006404954 0.018650727 -0.012310434 -0.033949457 -0.02994428 0.007818463 -0.006254429 0.021697657
-0.1192648 0.085337326 0.143589 0.2356741 0.097057685 0.018960988 0.06521117 -0.16730313
0.056536064 0.08476802 -0.020329915 0.08834507 0.18944249 0.014264906 0.067270465 0.029923273
0.0895775 -0.1320091 -0.015039366 0.065231286 -0.067180574 -0.09024634 -0.11946357 -0.03426363
-0.04002907 0.19760488 0.13120455 0.11764546 0.43241817 -0.09025872 -0.3200932 -0.12506138
-0.033259846 0.015745247 -0.039840516 -0.026007827 -0.015398777 -0.039747044 0.09047365 -0.06728586
-0.12005544 0.16988882 0.047245555 -0.028588358 -0.09485518 0.018353589 0.22745556 -0.030371465
-0.20019898 -0.16914861 0.048630565 -0.21258037 0.1546664 -0.1370984 0.08363347 -0.038610883
-0.08139318 0.35113242 0.06763772 0.17721233 0.38961422 0.024936777 0.1991218 -0.1984547
-0.026934244 0.1465995 0.017511642 -0.06252799 0.32190126 0.05083641 0.08967034 0.098121874
-0.50821936 0.08201561 -0.22464557 0.058663543 -0.37104294 -0.12127604 -0.25098303 0.025136476
-0.018666212 -0.09538484 -0.04074915 0.0014852339 0.027338708 0.040891115 0.075170055 0.0656363
-0.24596503 0.04241128 0.22479005 0.05051128 0.05424622 0.027052036 0.18036555 -0.076994024
0.06432419 0.03726929 -0.10571214 -0.059285354 -0.077710286 0.03346765 -0.0015206262 -0.02396415
0.044458378 0.0044600265 -0.073831074 0.11293272 -0.090545386 0.22475915 0.110579856 -0.16420116
0.04483286 0.09517867 0.0665939 -0.017863123 0.20224863 0.216467 -0.22972271 -0.28091717
-0.03014905 0.034756757 -0.041310452 0.031002898 -0.074357875 0.052083354 -0.06380928 0.0388149
-0.23929626 0.020307805 0.019467738 0.041602466 0.03151365 0.27810335 0.1536164 -0.12533529
0.10548388 0.09195697 0.060149636 0.017137043 -0.066719614 0.008840648 0.07874684 0.100034155
0.08974203 -0.05001082 -0.024831742 0.034130108 0.039044254 -0.033021305 0.01178451 0.06033345
-0.21718265 0.12584949 -0.011150038 0.031411916 0.10300176 0.3961191 0.11495907 0.24960488
0.07397007 -0.036584176 0.021506894 0.00093860185 0.07214542 0.068541 0.016368946 -0.019892551
0.09384883 -0.00066285534 0.16949359 0.0046929573 -0.20675749 -0.17551924 -0.050872736 0.040209193
-0.19724321 0.100604154 0.05864523 0.007889195 -0.05894845 0.07507105 -0.04479164 -0.3440506
-0.03222567 0.0025790695 0.30270833 -0.30421296 0.032184552 0.014373547 -0.111163475 0.085565336
-0.058273744 0.12305821 -0.046054013 -0.034373492 0.206683 0.17967862 0.14007822 -0.29633024
00000000: fdfd 37bd 0044 8fbd 6482 a03e 2647 68bd
00000010: 4874 7ebe 20f4 bebd 9689 99be a4c5 3f3d
00000020: c971 0cbd f7bb f2bc 0820 fabc c918 8ebc
00000030: 5f1d 54bc f842 223e fade 503c 4606 25bc
00000040: c492 073d 4799 713e 4719 fd3d 3578 e0bd
00000050: 3ebe 3b3e 972f 3a3e 3d98 e23d 1fc0 a83c
00000060: 2e0e a43b 9d22 8ebb 414e 913c 6d1e 7f3d
00000070: 270b 0b3a 5142 ec3c 49b0 f3bb f311 41bd
00000080: 07a3 633e ebf7 f7ba b802 99be 7f2b 71be
00000090: 8fa3 a43d 06bf 07be 3092 b3bc 3c5f d53d
000000a0: b28e 4f3c ed3b 9b3e b6ec 7c3e 2cd6 ebbd
000000b0: 4808 9dbd 9769 153e 6ea9 73be 83ba 543e
000000c0: a6e0 d13b 69c9 983c b4b1 49bc 960e 0bbd
000000d0: b54d f5bc 0319 003c f4f1 ccbb 49bf b13c
000000e0: 1a41 f4bd 56c5 ae3d ff08 133e 8d54 713e
000000f0: 2ec6 c63d 1354 9b3c 6f8d 853d 8351 2bbe
00000100: 5c92 673d db9a ad3d ec8a a6bc 43ee b43d
00000110: 36fd 413e 5ab7 693c 19c5 893d a721 f53c
00000120: 6974 b73d 652d 07be ac67 76bc fb97 853d
00000130: f895 89bd 13d3 b8bd 51a9 f4bd 0558 0cbd
00000140: 86f5 23bd ef58 4a3e 7c5a 063e 1af0 f03d
00000150: ea65 dd3e 90d9 b8bd 42e3 a3be 1710 00be
00000160: 7a3b 08bd 2dfc 803c cf2f 23bd 5e0e d5bc
00000170: 274b 7cbc cccd 22bd 404a b93d 2bcd 89bd
00000180: a0df f5bd 56f7 2d3e 8e84 413d 2232 eabc
00000190: 6f43 c2bd 445a 963c 1cea 683e 94cd f8bc
000001a0: f600 4dbe 4b35 2dbe d830 473d abae 59be
000001b0: de60 1e3e 8663 0cbe 0648 ab3d 7226 1ebd
000001c0: 78b1 a6bd a1c7 b33e a585 8a3d 2677 353e
000001d0: 847b c73e 3648 cc3c 96e6 4b3e b537 4bbe
000001e0: 34a5 dcbc 2e1e 163e 9374 8f3c ad0e 80bd
000001f0: 3ed0 a43e d739 503d 15a5 b73d 1ff4 c83d
00000200: aa1a 02bf cdf7 a73d 7d09 66be 2f49 703d
00000210: 57f9 bdbe 935f f8bd d980 80be 03eb cd3c
00000220: e2e9 98bc 2159 c3bd 95e8 26bd 2eac c23a
00000230: 6df5 df3c 717d 273d c2f2 993d 536c 863d
00000240: 42de 7bbe 73b7 2d3d 5d2f 663e eae4 4e3d
00000250: 4931 5e3d 3b9c dd3c bfb1 383e 0baf 9dbd
00000260: 67bc 833d afa7 183d 9b7f d8bd 33d5 72bd
00000270: 9226 9fbd 6015 093d c04f c7ba 7750 c4bc
00000280: fd19 363d 6a25 923b bf34 97bd 4549 e73d
00000290: dc6f b9bd 4327 663e b177 e23d 5924 28be
000002a0: a9a2 373d 09ed c23d 6262 883d af55 92bc
000002b0: 441a 4f3e 86a9 5d3e 6e3c 6bbe 60d4 8fbe
000002c0: 24fb f6bc 1a5d 0e3d 2635 29bd caf9 fd3c
000002d0: f148 98bd 5b55 553d 71ae 82bd 5ffc 1e3d
000002e0: 140a 75be 8e5c a63c ce7a 9f3c 5967 2a3d
000002f0: 7514 013d 9063 8e3e 9e4d 1d3e e557 00be
00000300: ef07 d83d f053 bc3d 775f 763d fc62 8c3c
00000310: 4ba4 88bd 5ed8 103c 0646 a13d b5de cc3d
00000320: abca b73d 25d8 4cbd f06b cbbc 03cc 0b3d
00000330: deec 1f3d 5941 07bd d113 413c 3520 773d
00000340: 2165 5ebe b0de 003e a6ae 36bc c8a9 003d
00000350: 96f2 d23d 1fd0 ca3e a96f eb3d 6c98 7f3e
00000360: 9f7d 973d 4ad9 15bd 3a2f b03c 810c 763a
00000370: fac0 933d 395f 8c3d 2b18 863c b4f5 a2bc
00000380: d133 c03d 78c3 2dba ba8f 2d3e 61c7 993b
00000390: 3cb8 53be 51bb 33be ee5f 50bd 65b2 243d
000003a0: 20fa 49be 8d09 ce3d fb35 703d af41 013c
000003b0: ee73 71bd dabe 993d 7077 37bd 6627 b0be
000003c0: 10ff 03bd 9b05 293b 96fc 9a3e cdc1 9bbe
000003d0: f3d3 033d 077f 6b3c ada9 e3bd e13c af3d
000003e0: 73b0 6ebd f105 fc3d 22a3 3cbd 38cb 0cbd
000003f0: b5a4 533e acfd 373e aa70 0f3e 99b8 97be

param_2 f4 [128, 128]
-0.027142154 0.011094867 0.0011926794 -0.037673965 0.0657324 -0.0138026085 0.046481725 0.0010252101
-0.054410513 0.030086113 0.06552329 -0.0714085 -0.10437185 0.0012796108 -0.07768778 0.17874643
0.0074622985 -0.0072766338 0.084431306 -0.055211376 0.0017525782 -0.016668446 0.046631932 0.04199283
0.05961694 -0.10815346 0.08801829 0.04073617 0.09856854 0.050862297 0.00058659376 -0.018756973
-0.02948988 0.022841819 0.0034857627 -0.008742271 0.00039110213 0.0068676216 -0.022338344 -0.012587666
-0.057437222 0.03959046 0.0069716363 0.0012242505 -0.06273321 -0.05785126 -0.0020454922 0.004760577
0.016213791 0.026054706 0.01128783 0.0071025356 0.024041664 0.011827065 -0.0021756338 -0.014483896
-0.05927104 0.041752733 -0.016495658 0.037390187 -0.0046280036 0.032884125 -0.037990686 -0.04621359
-0.031942736 -0.012424881 0.015082174 0.03603588 -0.011636612 0.06230484 0.0055335253 0.020329216
-0.03265418 -0.03110071 0.029711457 0.03464186 0.042146392 0.018143874 0.011441012 0.019458193
0.009218822 -0.026819611 0.032482665 0.033867072 0.012341847 0.008322488 0.04737215 -0.06794201
0.011923405 -0.005559545 0.0024849726 0.0056850747 0.0072339615 -0.018200722 0.011589519 0.013453541
-0.012096744 -0.09311409 0.05321284 0.05710229 -0.022645012 -0.008666975 -0.021179503 -0.024693275
-0.028881978 -0.030334625 0.018653655 0.020083578 0.018532021 0.026078029 -0.05418818 -0.05268106
0.025845895 0.00076916564 0.035086133 0.014523715 0.01180636 0.04035006 0.006659724 0.028610768
0.047843788 0.024381675 -0.018137988 0.01048619 0.0017650559 0.0013705468 -0.009592383 0.0154615585
0.013903523 -0.029414875 -0.042896062 -0.009621717 -0.0580959 -0.043841172 0.0170523 0.059377093
-0.009132994 0.045647833 0.012112119 -0.01248923 -0.01929264 0.014373557 0.018529825 0.022840748
0.024429003 0.012884893 -0.031098101 -0.0014575069 0.004806314 -0.013103744 0.03255243 0.03647567
0.067646585 -0.015476784 0.003333872 0.02987238 0.02129595 -0.013452486 0.014634671 0.025383659
0.005152143 -0.0039278846 0.034210883 -0.0013558487 0.028340217 -0.03617182 0.02046259 0.08069921
-0.011226017 -0.030971792 -0.041398827 0.018660007 -0.034395292 -0.0056946543 0.013423241 0.037941642
-0.0006758 0.0033956324 0.0022653125 -0.012436317 0.009553543 -0.054990996 0.0028446577 -0.029816374
0.01896592 0.020235017 -0.016763955 -0.0342884 0.005479145 -0.010369224 0.029064918 0.020667933
0.012209151 -0.030886319 0.00032241555 0.0049843886 0.024651436 0.002408339 -0.006268097 -0.042779982
-0.031139908 0.026216919 -0.009697827 0.02709377 -0.005305948 -0.035155453 0.007914053 -0.013711044
0.011157383 0.057821315 -0.05010224 0.08016577 -0.0740762 0.05022216 0.03230769 0.04419238
-0.04070322 -0.017749911 0.006782496 0.047087595 -0.010132572 0.008230552 -0.01581552 0.028670626
-0.005904632 0.040641606 0.012170078 0.014818826 -0.017999668 -0.0015798822 -0.028857961 0.04642317
0.035419658 0.06570014 -0.03948936 -0.0049735326 -0.040160198 -0.02600452 -0.032310344 0.02621387
0.022144137 0.0082073035 -0.014387832 -0.037308574 -0.078742474 -0.031338364 0.01050807 -0.024569826
-0.007108221 -0.023410724 -0.0044641043 -0.035059668 0.044925395 -0.016085915 -0.0020688924 0.041538622
00000000: 3959 debc 3fc7 353c ae53 9c3a 0450 1abd
00000010: b59e 863d 5624 62bc 9f63 3e3d 5860 863a
00000020: 8fdd 5ebd 2777 f63c 1331 863d 9f3e 92bd
00000030: e9c0 d5bd 9db8 a73a c51a 9fbd 4e09 373e
00000040: 4c86 f43b d470 eebb 52ea ac3d 5325 62bd
00000050: c4b6 e53a 448c 88bc 2001 3f3d ac00 2c3d
00000060: e430 743d 907f ddbd ef42 b43d f8da 263d
00000070: 4dde c93d fc54 503d a4c5 193a 39a8 99bc
00000080: c394 f1bc c41e bb3c 6571 643b be3b 0fbc
00000090: d70c cd39 c909 e13b e7fe b6bc 7f3c 4ebc
000000a0: 4b43 6bbd 9b29 223d 5372 e43b 0877 a03a
000000b0: 457a 80bd 71f5 6cbd aa0d 06bb 9dfe 9b3b
000000c0: c9d2 843c ae70 d53c 97f0 383c 63bc e83b
000000d0: 06f3 c43c 4ec6 413c 1495 0ebb dd4d 6dbc
000000e0: 31c6 72bd ea04 2b3d e721 87bc 7426 193d
000000f0: 82a6 97bb 81b1 063d 1f9c 1bbd 764a 3dbd
00000100: 63d6 02bd ba91 4bbc 391b 773c 5c9a 133d
00000110: 7da7 3ebc 5c33 7f3d 9352 b53b 7589 a63c
00000120: 64c0 05bd ebc6 febc 7165 f33c 9fe4 0d3d
00000130: b2a1 2c3d 76a2 943c 1573 3b3c ca66 9f3c
00000140: 8b0a 173c cdb4 dbbc 8b0c 053d 33b8 0a3d
00000150: 7535 4a3c 0b5b 083c 4d09 423d 2e25 8bbd
00000160: 635a 433c d82c b6bb ecda 223b dd49 ba3b
00000170: de0a ed3b ae19 95bc f7e1 3d3c 3e6c 5c3c
00000180: 6c31 46bc 9ab2 bebd b5f5 593d 17e4 693d
00000190: 0882 b9bc eeff 0dbc a380 adbc 8d49 cabc
000001a0: e699 ecbc 5280 f8bc 8dcf 983c 5186 a43c
000001b0: 77d0 973c 97a1 d53c 6df4 5dbd 18c8 57bd
000001c0: c5ba d33c d5a1 493a 7ab6 0f3d e0f4 6d3c
000001d0: 776f 413c 1b46 253d d039 da3b 2161 ea3c
000001e0: d9f7 433d 14bc c73c 1e96 94bc 45ce 2b3c
000001f0: 7359 e73a eba3 b33a 5f29 1dbc 7a52 7d3c
00000200: 9acb 633c 77f7 f0bc c8b3 2fbd 68a4 1dbc
00000210: f7f5 6dbd cd92 33bd 44b1 8b3c 6535 733d
00000220: 8ea2 15bc 39f9 3a3d e971 463c a19f 4cbc
00000230: 990b 9ebc 117f 6b3c dccb 973c 851c bb3c
00000240: 551f c83c 291b 533c 72c1 febc d109 bfba
00000250: 497e 9d3b 16b1 56bc b255 053d 8367 153d
00000260: 4b8a 8a3d 5692 7dbc 177d 5a3b ecb6 f43c
00000270: d874 ae3c d167 5cbc 42c6 6f3c 64f1 cf3c
00000280: 4fd3 a83b 7cb5 80bb b620 0c3d bcb6 b1ba
00000290: be29 e83c e728 14bd 29a1 a73c a145 a53d
000002a0: 54ed 37bc 8eb8 fdbc d191 29bd dfdc 983c
000002b0: 14e2 0cbd 399a babb 27ed 5b3c b268 1b3d
000002c0: 2c28 31ba 4289 5e3b a375 143b b2c1 4bbc
000002d0: 7786 1c3c 3d3e 61bd 706d 3a3b 7841 f4bc
000002e0: 6b5e 9b3c e8c3 a53c 9054 89bc fe71 0cbd
000002f0: 668a b33b ade3 29bc 8d19 ee3c cc4f a93c
00000300: e408 483c 4e05 fdbc e209 a939 1554 a33b
00000310: cff1 c93c 39d5 1d3b 9c64 cdbb 103a 2fbd
00000320: 1f19 ffbc ddc4 d63c a2e3 1ebc c1f3 dd3c
00000330: 85dd adbb 2aff 0fbd f2a9 013c 49a4 60bc
00000340: 75cd 363c 0bd6 6c3d 0238 4dbd f42d a43d
00000350: 43b5 97bd c0b5 4d3d 1155 043d 1203 353d
00000360: 6bb8 26bd 4368 91bc b33f de3b ecde 403d
00000370: 1603 26bc 70d9 063c 8d8f 81bc a9de ea3c
00000380: a57b c1bb d077 263d 0265 473c a9ca 723c
00000390: 0a74 93bc 0d14 cfba 8867 ecbc 3926 3e3d
000003a0: 3414 113d cc8d 863d 98bf 21bd 04f9 a2bb
000003b0: 057f 24bd 6e07 d5bc da57 04bd 78be d63c
000003c0: 9f67 b53c ed77 063c f1ba 6bbc e0d0 18bd
000003d0: bc43 a1bd a85c 00bd 0a2a 2c3c a946 c9bc
000003e0: 14ec e8bb d9c7 bfbc 9f47 92bb ba9a 0fbd
000003f0: b103 383d 9cc6 83bc 4196 07bb 6724 2a3d

param_3 f4 [128, 128]
0.0076577733 0.062303293 0.18249737 -0.09351494 0.0358495 0.044304978 0.20540585 0.0033482017
-0.038853236 -0.061067827 -0.050997492 -0.03754323 -0.0013850897 0.17656024 -0.086838886 0.1237541
-0.106144786 0.050447173 -0.023972027 0.00848826 0.015673917 -0.04367864 -0.10472877 -0.015965365
-0.014320623 0.025251238 -0.04914118 -0.061425164 0.16430663 0.0761804 -0.04567646 -0.04608408
0.081379935 0.055555172 -0.07534459 0.101079315 -0.08353618 -0.029276298 -0.05151378 -0.10454642
0.11873684 -0.047183573 -0.1521959 -0.02503218 0.046795476 -0.04382824 0.010535312 0.06708611
0.0027185474 0.024782056 0.032549176 -0.05099837 -0.009424718 0.17221753 -0.06443864 0.00013129324
-0.024098266 0.016012415 0.17543073 -0.12084981 0.030502526 0.0039883596 -0.03478885 -0.0049762693
-0.055823177 -0.056421336 -0.09915093 0.02010259 -0.0026859955 -0.051101144 0.07730823 0.01795615
0.18020223 -0.08619931 -0.0026504532 -0.052426193 -0.10550145 0.058935627 -0.13934667 -0.031305563
-0.05007822 0.1352651 -0.039526056 0.0020433238 0.03306164 -0.049943134 -0.03839052 0.053851392
0.11710656 -0.028788533 0.05680783 -0.023249347 0.097910136 0.047934517 0.034741167 0.076442026
0.032463204 -0.07660387 0.034034397 -0.045058396 0.018602815 0.050583936 -0.053455837 0.19091116
0.068741955 -0.019299446 0.07270002 0.05086923 -0.017277446 -0.010650785 0.010373813 0.010834726
-0.057504028 -0.10921465 -0.035183594 -0.059118215 -0.05356875 0.010401027 0.01808199 -0.05674241
-0.13887744 -0.10387734 0.042071555 0.101421244 0.02542361 0.015304062 0.059461515 0.0028294886
0.05857656 0.026852375 0.04450143 -0.058845963 0.058072113 -0.0022921872 0.039887074 -0.023336934
0.023118157 -0.037031926 0.048431233 0.051875792 0.09990592 0.07170216 0.12843585 0.10491655
0.012271454 0.085257135 0.054663744 0.019148229 0.017380722 0.1103543 -0.054028273 0.061838686
0.003311119 0.094730884 -0.0074794213 0.10666767 -0.016101116 0.040948167 0.0023092763 -0.00808746
-0.054755915 -0.028818125 -0.036513984 0.058073748 -0.11146882 -0.031042181 -0.035379786 -0.01566931
0.012536644 -0.025472457 -0.0147437155 -0.03366798 -0.012950975 -0.013707528 -0.040888406 0.027314892
0.0150550455 -0.036639143 -0.011263526 -0.019548822 -0.006904681 0.008224347 0.011498671 0.011633217
-0.041611813 -0.0034794973 0.022708852 -0.054632522 -0.0152608715 -0.014655534 0.032480963 -0.019307313
-0.00568826 -0.029850079 -0.0034797254 -0.026028281 -0.015121022 -4.899828e-05 0.018632451 0.010780992
-0.006098256 -0.009777331 0.013359914 0.011620907 0.039100457 -0.014031452 0.0044523086 -0.02782434
-0.005210208 -0.007199019 -0.022012504 0.0077644535 0.05152395 -0.011499907 -0.02026023 -3.2789867e-05
-0.02717067 -0.08254458 0.04794558 -0.023162244 -0.00451672 -0.047624074 0.04036699 -0.019273968
0.0059192423 -0.02463184 0.0069446955 -0.060820546 0.009733792 0.039217927 0.05077848 0.048703577
-0.0042355163 -0.019353189 0.018311726 0.004274648 0.01858998 -0.04726035 0.03158487 -0.08350222
0.02801317 -0.037565555 -0.0092843855 -0.011973741 -0.02433118 -0.035678096 -0.009392815 0.0014683447
-0.003205501 -0.024811106 0.016581165 -0.017413827 0.031522684 -0.029028265 0.07798732 0.00056845054
00000000: 0fee fa3b bd31 7f3d 97e0 3a3e c384 bfbd
00000010: edd6 123d 2379 353d e955 523e 816d 5b3b
00000020: 9224 1fbd 4222 7abd bfe2 50bd eec6 19bd
00000030: e68b b5ba 35cc 343e 96d8 b1bd ca72 fd3d
00000040: 7062 d9bd b2a1 4e3d fc60 c4bc 5812 0b3c
00000050: 9666 803c 60e8 32bd 0a7c d6bd ccc9 82bc
00000060: 0ca1 6abc afdb ce3c 4348 49bd f498 7bbd
00000070: ff3f 283e 7804 9c3d 3d17 3bbd a9c2 3cbd
00000080: 86aa a63d d28d 633d 444e 9abd ac02 cf3d
00000090: 0415 abbd d9d4 efbc 1d00 53bd 6f1c d6bd
000000a0: 4d2c f33d 9043 41bd 3ed9 1bbe 4910 cdbc
000000b0: 9dac 3f3d 3e85 33bd 4d9c 2c3c 7164 893d
000000c0: a829 323b bd03 cb3c 4952 053d abe3 50bd
000000d0: 226a 1abc cb59 303e 68f8 83bd c3ab 0939
000000e0: ba69 c5bc 782c 833c 1da4 333e 1b80 f7bd
000000f0: 6fe0 f93c c9b0 823b c17e 0ebd f90f a3bb
00000100: d8a6 64bd 0f1a 67bd a50f cbbd 30ae a43c
00000110: 8707 30bb 6f4f 51bd c753 9e3d c718 933c
00000120: ef86 383e 4489 b0bd 3ab3 2dbb d9bc 56bd
00000130: 2511 d8bd 7c66 713d e5b0 0ebe 433a 00bd
00000140: d21e 4dbd ef82 0a3e 13e6 21bd 49e9 053b
00000150: a46b 073d 2c91 4cbd 613f 1dbd 4793 5c3d
00000160: 90d5 ef3d eed5 ebbc 54af 683d 6a75 bebc
00000170: 1c85 c83d fc56 443d c14c 0e3d a38d 9c3d
00000180: 23f8 043d 7de2 9cbd a767 0b3d 278f 38bd
00000190: ee64 983c 1a31 4f3d 82f4 5abd 377e 433e
000001a0: 95c8 8c3d df19 9ebc c0e3 943d 415c 503d
000001b0: 6e89 8dbc a180 2ebc edf6 293c 2284 313c
000001c0: 5889 6bbd eeab dfbd ac1c 10bd f125 72bd
000001d0: e86a 5bbd 1269 2a3c ae20 943c bb6a 68bd
000001e0: e335 0ebe a5bd d4bd 3953 2c3d f1b5 cf3d
000001f0: 2d45 d03c e3bd 7a3c eb8d 733d f16e 393b
00000200: faed 6f3d 83f9 db3c 2247 363d 7708 71bd
00000210: 06dd 6d3d 8538 16bb a160 233d 192d bfbc
00000220: 4a62 bd3c caae 17bd d45f 463d b67b 543d
00000230: 7a9b cc3d 95d8 923d b084 033e 7dde d63d
00000240: 350e 493c 4b9b ae3d 17e7 5f3d bfdc 9c3c
00000250: 0462 8e3c 6f01 e23d c04c 5dbd 904a 7d3d
00000260: 5cff 583b 4402 c23d ef15 f5bb 9474 da3d
00000270: 7de6 83bc 44b9 273d 3a57 173b 4481 04bc
00000280: bd47 60bd fd13 ecbc b08f 15bd bdde 6d3d
00000290: c449 e4bd 2c4c febc 65ea 10bd ed5c 80bc
000002a0: 7f66 4d3c 9dab d0bc a08f 71bc 70e7 09bd
000002b0: 5430 54bc 8a95 60bc 9a7a 27bd 7bc3 df3c
000002c0: 70a9 763c ed12 16bd a78a 38bc da24 a0bc
000002d0: aa40 e2bb 69bf 063c ec64 3c3c 4099 3e3c
000002e0: 2671 2abd 4708 64bb ea07 ba3c 5ac6 5fbd
000002f0: bc08 7abc c41d 70bc c20a 053d 5f2a 9ebc
00000300: 9564 babb 2788 f4bc 1b0c 64bb 4339 d5bc
00000310: 2abe 77bc 8183 4db8 15a3 983c c2a2 303c
00000320: e1d3 c7bb 1931 20bc 8ae3 5a3c 9e65 3e3c
00000330: cd27 203d 2de4 65bc ace4 913b dfef e3bc
00000340: 64ba aabb c0e5 ebbb 9153 b4bc f56c fe3b
00000350: c70a 533d 1b6a 3cbc c8f8 a5bc da87 09b8
00000360: 0695 debc 220d a9bd 9662 443d bfbe bdbc
00000370: fe00 94bb 7611 43bd db57 253d 71e4 9dbc
00000380: 34f6 c13b b6c8 c9bc 5490 e33b f71e 79bd
00000390: 7c7a 1f3c faa2 203d 18fd 4f3d 677d 473d
000003a0: 16ca 8abb 948a 9ebc 7902 963c 5912 8c3b
000003b0: 044a 983c 1294 41bd 235f 013d 3603 abbd
000003c0: e07b e53c 57de 19bd 891d 18bc 832d 44bc
000003d0: 2f52 c7bc 3223 12bd 52e4 19bc 7975 c03a
000003e0: 6213 52bb a940 cbbc 39d5 873c 71a7 8ebc
000003f0: ee1d 013d afcc edbc d1b7 9f3d 1204 153a

param_4 f4 [128, 512]
0.06078599 -0.16596782 0.09376261 -0.1355494 0.20680946 -0.0140935145 0.17642038 -0.01004494
-0.1812351 0.020902019 -0.003837956 0.098227866 -0.07361904 -0.06147087 0.021377116 0.030634886
0.06786251 -0.05964116 0.024745032 -0.07609261 -0.039640985 -0.18373245 -0.033855177 0.099957466
0.048706006 -0.05542121 -0.035050206 -0.062277194 0.16572164 -0.011739653 0.29905188 -0.1237915
0.14174591 0.06424031 -0.016591078 0.036417987 -0.19791354 -0.09687987 0.0064964523 -0.05157737
0.025143053 -0.100647815 0.14143689 0.017315133 0.025956703 -0.021047309 0.0063817496 -0.14473654
0.15293144 -0.1909264 -0.08608485 -0.12405998 0.0925411 -0.10122556 -0.22050081 0.19741935
0.044681612 -0.021880135 -0.17911452 -0.0959877 0.00030225204 0.099387266 0.047043566 -0.20379537
-0.094929144 0.056880966 0.07122403 -0.007003789 -0.010091715 0.0063486886 -0.08714338 -0.051310066
0.15544303 -0.05439584 -0.06728205 -0.09664238 -0.06148307 -0.06575022 0.11669653 -0.12497112
0.20120053 0.13406956 0.21298848 0.037444077 0.06177931 -0.018491367 -0.08482957 0.010440828
-0.123000324 -0.032058608 -0.0100670215 -0.15582694 -0.011142982 -0.08261758 0.033621367 0.12810406
0.04054408 -0.21853234 0.04669737 -0.031988535 -0.02408657 0.04855632 -0.12561938 -0.042647544
0.1502876 -0.10757228 0.26293924 -0.1637624 -0.22672361 -0.07080974 0.022957517 0.013850312
-0.227575 -0.011292987 0.06433376 -0.08334824 0.07373035 -0.15758798 0.1479518 0.011879379
0.13967688 0.08040554 0.1597673 -0.022079378 0.08218056 0.0022748907 -0.17988667 0.02056181
-0.0760949 0.0075247902 0.032669336 0.1298439 0.07142766 -0.00058716454 0.04835503 -0.05841903
-0.2269815 0.029148648 0.009969041 0.068682246 0.10602278 0.13214089 -0.05957848 0.06287224
-0.095896095 -0.09801398 0.08023479 0.013647731 0.13056844 0.14025709 -0.12174648 -0.11732108
0.05960565 0.043589566 0.27846846 0.19976737 -0.045114715 0.017850338 0.03821599 -0.08391086
0.007331067 -0.00818254 0.10318859 -0.045465183 -0.3385147 0.03618851 -0.012584503 -0.09447065
-0.061246596 -0.05639765 -0.14555892 -0.010005108 -0.12928444 0.031799242 0.24071929 -0.008545767
0.06756727 0.06736218 -0.14596927 0.047657806 0.19684376 -0.03688233 0.0055477466 -0.060708582
0.1987159 0.027424103 -0.19248962 0.012409336 0.089923725 0.088099115 0.12897827 0.20891537
0.08470632 0.08004511 0.08566438 -0.19623686 -0.012737199 0.08362922 0.015178415 0.040125173
-0.07178375 -0.092072845 -0.008318642 -0.038057316 -0.031233212 -0.029936036 -0.03235716 0.073927864
0.09159538 -0.17348714 0.08405073 -0.1706497 0.01978314 -0.16443053 -0.07653783 -0.17192468
-0.112473294 0.13139331 0.13709046 -0.068181194 -0.080792785 0.072395965 0.16508149 -0.15153609
0.05841177 0.0023408397 0.0030150744 0.118794344 0.089044236 0.13742192 -0.012126259 0.02781252
-0.088791005 0.021633446 0.18396595 0.018982682 0.025940474 0.05678848 -0.13406688 0.08841467
-0.07550589 -0.012944969 0.02842472 -0.18585496 -0.018158149 0.13396241 0.010165067 -0.17392482
-0.08386554 0.01861166 -0.023610428 0.06871583 -0.25902337 -0.06894275 0.09563062 -0.07076146
00000000: bbfa 783d 78f3 29be 9c06 c03d 76cd 0abe
00000010: dcc5 533e 7ce8 66bc 8ba7 343e 8893 24bc
00000020: b295 39be b63a ab3c 3886 7bbb b12b c93d
00000030: 94c5 96bd e1c8 7bbd 101f af3c 03f6 fa3c
00000040: 80fb 8a3d 4a4a 74bd 18b6 ca3c 71d6 9bbd
00000050: 965e 22bd 5c24 3cbe baab 0abd 80b6 cc3d
00000060: f37f 473d 5a01 63bd ce90 0fbd 5f16 7fbd
00000070: efb2 293e ac57 40bc 541d 993e 6686 fdbd
00000080: d725 113e 6c90 833d 03ea 87bc 072b 153d
00000090: d9a9 4abe f468 c6bd 31e0 d43b cb42 53bd
000000a0: cef8 cd3c 7120 cebd d5d4 103e 77d8 8d3c
000000b0: 27a3 d43c 686b acbc ff1d d13b d135 14be
000000c0: 0f9a 1c3e 3682 43be 414d b0bd 2913 febd
000000d0: 3086 bd3d 594f cfbd f7ca 61be 4c28 4a3e
000000e0: 1104 373d f83d b3bc cc69 37be 3395 c4bd
000000f0: 9577 9e39 8d8b cb3d c1b0 403d bcaf 50be
00000100: 366a c2bd 04fc 683d e7dd 913d 0a80 e5bb
00000110: b857 25bc a908 d03b 3a78 b2bd 812a 52bd
00000120: 752c 1f3e 2cce 5ebd 2ccb 89bd 71ec c5bd
00000130: acd5 7bbd 0da8 86bd 97fe ee3d dcf0 ffbd
00000140: 8307 4e3e 8849 093e a719 5a3e f65e 193d
00000150: 4d0c 7d3d 357b 97bc 20bb adbd 0210 2b3c
00000160: 98e7 fbbd e34f 03bd 26f0 24bc 1991 1fbe
00000170: 0e91 36bc 6833 a9bd 8fb6 093d b62d 033e
00000180: 8d11 263d f1c6 5fbe be45 3f3d 6906 03bd
00000190: 3351 c5bc fee2 463d 5ea2 00be 31af 2ebd
000001a0: fee4 193e db4e dcbd f99f 863e 55b1 27be
000001b0: 3c2a 68be b204 91bd 6711 bc3c 6bec 623c
000001c0: 6c09 69be 3806 39bc 6bc1 833d 7bb2 aabd
000001d0: f0ff 963d be5e 21be ad80 173e baa1 423c
000001e0: 7507 0f3e a9ab a43d 0a9a 233e d0df b4bc
000001f0: 484e a83d 5516 153b 3634 38be 3e71 a83c
00000200: a5d7 9bbd 8492 f63b 48d0 053d cdf5 043e
00000210: aa48 923d f2eb 19ba ed0f 463d cb48 6fbd
00000220: d76d 68be 25c9 ee3c 3055 233c 47a9 8c3d
00000230: 7922 d93d f14f 073e 9008 74bd 29c3 803d
00000240: 2c65 c4bd 8ebb c8bd 2352 a43d bc9a 5f3c
00000250: bcb3 053e 8e9f 0f3e 3856 f9bd 0946 f0bd
00000260: 0e25 743d f98a 323d 6b93 8e3e d18f 4c3e
00000270: 35ca 38bd df3a 923c 5f88 1c3d 75d9 abbd
00000280: 7339 f03b 0f10 06bc 8a54 d33d b339 3abd
00000290: cc51 adbe 673a 143d 3b2f 4ebc d479 c1bd
000002a0: b6dd 7abd 3901 67bd 660d 15be 77ec 23bc
000002b0: 2463 04be ec3f 023d 1e7f 763e 8b03 0cbc
000002c0: b560 8a3d 2ff5 893d f878 15be d534 433d
000002d0: 6991 493e ed11 17bd dfc9 b53b 90a9 78bd
000002e0: 2e7c 4b3e 83a8 e03c 001c 45be 8750 4b3c
000002f0: ee29 b83d 4f6d b43d e112 043e e9ed 553e
00000300: 827a ad3d b1ee a33d ce70 af3d 51f2 48be
00000310: afaf 50bc cc45 ab3d e3ae 783c 4b5a 243d
00000320: 5c03 93bd b090 bcbd ea4a 08bc fde1 1bbd
00000330: cbdc ffbc 6b3c f5bc f188 04bd 7e67 973d
00000340: 5c96 bb3d 9da6 31be ca22 ac3d ccbe 2ebe
00000350: 4010 a23c 7a60 28be debf 9cbd 060d 30be
00000360: 6658 e6bd f88b 063e 7161 0c3e 95a2 8bbd
00000370: b076 a5bd 5644 943d 1f0b 293e 472c 1bbe
00000380: 2e41 6f3d c668 193b 8e98 453b 734a f33d
00000390: d35c b63d 55b8 0c3e 37ad 46bc 15d7 e33c
000003a0: 0fd8 b5bd a038 b13c 9261 3c3e 9281 9b3c
000003b0: 1e81 d43c 0a9b 683d d448 09be c012 b53d
000003c0: d5a2 9abd 2317 54bc f5da e83c c350 3ebe
000003d0: 66c0 94bc 712d 093e 628b 263c 5919 32be
000003e0: b2c1 abbd 7b77 983c a86a c1bc e3ba 8c3d
000003f0: b69e 84be db31 8dbd fdd9 c33d 62eb 90bd

param_5 f4 [1, 512]
-0.052251555 -0.049485903 -0.054965965 -0.008142878 -0.045046322 -0.04191343 -0.014344961 -0.043619245
-0.063484475 -0.032728065 -0.08141606 -0.04078785 -0.051680952 -0.063889205 -0.062548324 0.0018024365
-0.03807827 -0.021204066 -0.025393732 -0.0039314115 -0.028477538 -0.056662317 -0.032876078 -0.038685486
-0.059549905 -0.02247125 -0.06800547 -0.063960314 -0.044668023 -0.034444015 -0.07256283 -0.040501807
-0.0978586 0.00015979822 -0.061508853 -0.058652274 -0.059452083 -0.038842563 -0.020855315 -0.044439323
-0.034932822 -0.033821475 -0.040565733 -0.053163886 -0.057985015 -0.046822704 -0.00841223 -0.030645674
-0.07216513 -0.032919347 -0.0325487 -0.04346926 -0.019776922 -0.054914527 -0.040154833 -0.05445732
-0.029022876 -0.071423195 -0.02724446 -0.0674625 -0.021110056 -0.05152852 -0.05913373 -0.010431776
-0.00590761 -0.049381077 -0.0388667 -0.0577239 -0.07683249 -0.07988453 -0.050534826 -0.018773077
-0.15896896 -0.04597245 -0.048120406 -0.05105855 -0.07291795 -0.024160583 -0.029110262 -0.02744045
-0.024985574 -0.06533167 -0.029055733 -0.03517617 -0.03668085 -0.039196216 -0.05669559 -0.013965871
-0.047104675 -0.047677655 -0.06836118 -0.06467027 -0.026966097 -0.04482955 -0.06552748 -0.050886996
-0.055828653 -0.00819914 -0.057653926 -0.058116343 -0.050210178 -0.05567911 -0.042507637 -0.055087972
-0.024764292 -0.04736679 -0.053028326 -0.062294528 -0.104702644 -0.04458575 -0.061109386 -0.029389713
-0.04256496 -0.055469055 -0.038448676 -0.052090574 -0.071754105 -0.01943364 -0.04023964 -0.038534418
-0.09617227 -0.10547499 -0.016468875 -0.056344245 -0.07106874 -0.038937926 -0.042040512 -0.025954576
-0.038842615 -0.022002403 -0.033312414 -0.038710803 -0.08848638 -0.04400383 -0.048270177 -0.050695524
-0.059638623 -0.060279 -0.00072841474 -0.009370859 -0.03656801 -0.028851915 -0.051842682 -0.0080198925
-0.06467391 -0.10117934 -0.03926114 -0.025748802 -0.07043745 -0.05329796 -0.0103849815 -0.03704151
-0.051717144 -0.055032134 -0.0379822 -0.09461797 -0.006647206 -0.025924418 -0.03035542 -0.052055918
-0.03306308 -0.03711046 -0.06417412 -0.07227152 -0.013914836 -0.0317023 -0.051749356 -0.013358295
-0.046603546 -0.05228724 -0.088248044 -0.05560311 -0.015710859 -0.03910873 -0.049854625 -0.07598489
-0.01999527 -0.017724331 -0.02774366 -0.05850104 -0.023741009 -0.04886661 -0.035172325 -0.030403128
-0.06831347 -0.095057435 -0.016622923 -0.030363139 -0.011190812 -0.051869504 -0.037194394 -0.058687963
-0.043521363 -0.024843631 -0.022116806 -0.06797425 -0.03766033 -0.04379297 -0.03485385 -0.058430046
-0.046058066 -0.06345864 -0.03536423 -0.022988657 -0.035766453 -0.06759232 -0.072836965 -0.003076749
0.0006443563 -0.04105985 -0.0140427975 -0.03185972 -0.025555247 -0.0027615586 -0.0711456 -0.03183026
-0.026301667 -0.053015914 -0.030790366 -0.021206832 -0.0400874 -0.04158996 -0.04600014 -0.030302787
-0.061086413 -0.073801234 -0.08442817 -0.09446946 -0.0436468 -0.05587638 -0.029909225 -0.035967283
-0.048530422 -0.03251037 -0.04937249 -0.050222825 -0.036505397 -0.08623203 -0.044132724 -0.036397565
-0.028826838 -0.032655176 -0.10399093 -0.04485353 -0.055585727 -0.06319765 -0.08862307 -0.033230282
-0.01730884 -0.047122944 -0.0454819 -0.0024459849 -0.09628025 -0.03768402 -0.027867498 -0.0555886
00000000: ba05 56bd bbb1 4abd fe23 61bd b569 05bc
00000010: 7e82 38bd 6bad 2bbd 2107 6bbc 18aa 32bd
00000020: 2604 82bd dd0d 06bd 77bd a6bd 2911 27bd
00000030: 68af 53bd 58d8 82bd 5619 80bd bc3f ec3a
00000040: f6f7 1bbd 26b4 adbc 8406 d0bc 12d3 80bb
00000050: ba49 e9bc bf16 68bd 11a9 06bd ac74 1ebd
00000060: 9aea 73bd a015 b8bc 7446 8bbd a0fd 82bd
00000070: d1f5 36bd 2b15 0dbd d29b 94bd 39e5 25bd
00000080: 176a c8bd 828f 2739 b5f0 7bbd 5e3d 70bd
00000090: 0784 73bd 6119 1fbd c4d8 aabc 0206 36bd
000000a0: b815 0fbd 6388 0abd 4128 26bd 60c2 59bd
000000b0: b281 6dbd 2ac9 3fbd 73d3 09bc a30c fbbc
000000c0: 50cb 93bd 70d6 06bd c951 05bd d30c 32bd
000000d0: 3603 a2bc 0eee 60bd 6579 24bd a40e 5fbd
000000e0: 62c1 edbc 5346 92bd c62f dfbc c729 8abd
000000f0: ffee acbc 920f 53bd 3636 72bd 0aea 2abc
00000100: a094 c1bb d043 4abd b032 1fbd e56f 6cbd
00000110: 5a5a 9dbd 809a a3bd 9bfd 4ebd ffc9 99bc
00000120: c2c8 22be 9c4d 3cbd e719 45bd c522 51bd
00000130: 0256 95bd 6aec c5bc a578 eebc cbca e0bc
00000140: 8cae ccbc 9ccc 85bd 4a06 eebc e314 10bd
00000150: a93e 16bd 368c 20bd a339 68bd 1cd1 64bc
00000160: d5f0 40bd a549 43bd f200 8cbd d971 84bd
00000170: 01e8 dcbc 319f 37bd 4533 86bd e26e 50bd
00000180: 96ac 64bd b055 06bc 8626 6cbd 670b 6ebd
00000190: 30a9 4dbd c70f 64bd 7d1c 2ebd eda3 61bd
000001a0: 7cde cabc ae03 42bd 3b34 59bd 8c28 7fbd
000001b0: 576e d6bd 8c9f 36bd d64d 7abd b2c2 f0bc
000001c0: 9858 2ebd 8533 63bd 5c7c 1dbd ed5c 55bd
000001d0: d1f3 92bd 4c33 9fbc 52d2 24bd 44d6 1dbd
000001e0: f8f5 c4bd 4603 d8bd bce9 86bc 39c9 66bd
000001f0: 7d8c 91bd 607d 1fbd ac32 2cbd b19e d4bc
00000200: 6f19 1fbd 623e b4bc 9972 08bd 388f 1ebd
00000210: 5938 b5bd 5c3d 34bd f3b6 45bd 1ca6 4fbd
00000220: a147 74bd 1de7 76bd 16f3 3eba 3b88 19bc
00000230: 56c8 15bd da5a ecbc fe58 54bd de65 03bc
00000240: c173 84bd 1d37 cfbd 4ad0 20bd 27ef d2bc
00000250: 8341 90bd f64e 5abd c525 2abc d7b8 17bd
00000260: 5bd5 53bd 6069 61bd 3993 1bbd 11c7 c1bd
00000270: ced0 d9bb 725f d4bc eeab f8bc 9638 55bd
00000280: 276d 07bd 2301 18bd b96d 83bd 1703 94bd
00000290: 0dfb 63bc 45da 01bd 22f7 53bd c0dc 5abc
000002a0: 5ce3 3ebd 252b 56bd 64bb b4bd 16c0 63bd
000002b0: 0fb4 80bc 7a30 20bd 5d34 4cbd f79d 9bbd
000002c0: 1fcd a3bc 9e32 91bc ac46 e3bc c99e 6fbd
000002d0: 817c c2bc 5b28 48bd db10 10bd fb0f f9bc
000002e0: efe7 8bbd 79ad c2bd cc2c 88bc 1ebc f8bc
000002f0: ab59 37bc 1e75 54bd 2659 18bd ca62 70bd
00000300: 7543 32bd df84 cbbc 4e2e b5bc 1536 8bbd
00000310: b841 1abd 4260 33bd e9c2 0ebd 5854 6fbd
00000320: 62a7 3cbd 9af6 81bd 15da 10bd b552 bcbc
00000330: d87f 12bd d86d 8abd 8c2b 95bd 48a3 49bb
00000340: 05ea 283a 602e 28bd c313 66bc 567f 02bd
00000350: 3d59 d1bc 44fb 34bb c9b4 91bd 7260 02bd
00000360: 9876 d7bc 3727 59bd 143c fcbc f3b9 adbc
00000370: af32 24bd 3c5a 2abd a56a 3cbd 8d3d f8bc
00000380: bf35 7abd 1a25 97bd ade8 acbd 3479 c1bd
00000390: fdc6 32bd a2de 64bd 3104 f5bc 6e52 13bd
000003a0: d6c7 46bd 9829 05bd cf3a 4abd 73b6 4dbd
000003b0: af86 15bd 6b9a b0bd 84c4 34bd 9d15 15bd
000003c0: 4326 ecbc 6fc1 05bd 32f9 d4bd 56b8 37bd
000003d0: dcad 63bd c56d 81bd 0380 b5bd 7a1c 08bd
000003e0: 45cb 8dbc fd03 41bd 3b4b 3abd d14c 20bb
000003f0: 942e c5bd 8f5a 1abd 614a e4bc dfb0 63bd

param_6 f4 [512, 128]
-0.07240656 -0.0577944 -0.04536533 0.13452227 -0.003938438 0.06456858 0.013834741 0.02496591
-0.05118036 -0.075342506 0.0063576866 0.07852813 0.022066556 0.021923846 0.038384803 -0.14976951
0.020988055 0.018409828 -0.0040350463 0.12087334 -0.054876182 -0.046049837 0.05971175 0.025836417
0.004195823 0.013662838 0.022665612 0.064693965 -0.019694576 0.0419006 0.040503997 0.0520227
0.054201506 -0.0008701542 0.008761856 -0.035701733 0.0057665445 0.053168003 -0.04432402 -0.011358371
0.04530691 0.07943402 -0.048236653 -0.022573126 0.008845622 0.0715534 -0.0057783034 0.023020685
0.10674838 -0.040412948 0.0007315167 -0.010079643 0.08274263 0.06044126 -0.014104369 -0.056402773
-0.052517507 -0.017962227 0.11985755 0.06328733 0.0092987465 0.04440802 -0.021301474 -0.06158305
0.11738425 -0.10259833 -0.011889837 0.04818579 -0.034473643 -0.025309855 0.04228303 0.010143553
-0.08152766 0.072203994 0.037977826 -0.049348477 -0.034407143 0.012497589 -0.046151552 0.030084552
-0.0131179 -0.0571233 -0.008747794 -0.0013195202 0.035408136 0.06974752 -0.092477985 -0.09098539
0.08267892 0.009318588 0.02762641 -0.07921665 -0.0690493 0.07390468 -0.045823902 -0.017820304
0.083944514 0.03488041 0.06002773 0.015142058 -0.11916719 0.03753884 0.0381304 -0.010611587
0.005636898 -0.047362443 -0.03736447 0.05410148 0.050597116 -0.0025042552 -0.0720954 -0.061471622
-0.07894062 0.047348607 0.13045031 0.009631033 -0.07515933 -0.017435336 -0.050987117 0.04007156
0.014711692 0.04508182 -0.042437017 0.09219942 0.104267456 0.032590874 -0.1007315 -0.008409922
-0.06279331 0.038009718 0.15561116 -0.116374 0.15786728 0.07588692 -0.11015137 -0.12074239
-0.18383473 -0.077713504 -0.042399533 -0.104032084 0.1653283 -0.028757242 -0.0448994 0.15231574
-0.06826194 -0.019638209 0.0020351247 -0.021810722 -0.109619714 -0.09892795 -0.24002369 0.12242143
-0.10722725 0.085252434 -0.037957925 -0.025082853 -0.083543465 -0.063774504 -0.018635087 -0.06814421
0.2045105 0.015923433 -0.04545321 -0.12997645 0.004901449 0.11551619 -0.040495276 0.10356165
-0.13001175 0.057403136 -0.00043676348 -0.18270451 0.13898793 -0.092706904 -0.05840397 0.079420194
0.040217966 -0.015806202 0.114958815 0.021055857 -0.02980545 -0.028096216 0.039946057 -0.038134553
-0.11762422 0.06377055 -0.23564415 -0.12608668 0.097678155 -0.055162128 0.08262459 0.12148474
-0.058397293 0.008174416 -0.007732342 -0.0786406 0.023611452 0.011889045 -0.061890624 -0.17873536
0.12775101 -0.105837844 0.05837286 0.10564222 0.29765052 0.009719602 -0.050856467 0.09353848
0.062725954 -0.121824555 -0.10945849 -0.09684125 0.075919434 0.07830516 0.13826115 0.039605655
-0.12986888 0.11622793 -0.023271395 0.080645 0.032567147 0.13694495 0.09177439 -0.08156756
0.056526765 -0.088497095 -0.061949976 0.038337212 -0.01262346 0.046191793 0.038555205 0.057327088
-0.066058606 -0.007139095 -0.023222653 -0.017308002 -0.049738258 -0.05461478 0.16536209 -0.15640493
-0.23530135 -0.04777119 -0.016759636 -0.16017559 -0.007941455 0.051733665 0.05605758 0.051800746
0.1044297 0.21547887 0.0787884 0.12021718 -0.050551195 0.08552092 0.08233688 -0.10331788
00000000: e449 94bd d2b9 6cbd ffd0 39bd 35c0 093e
00000010: 030e 81bb 883c 843d 1cab 623c 4f85 cc3c
00000020: 7fa2 51bd 2c4d 9abd 2454 d03b 5bd3 a03d
00000030: ecc4 b43c a399 b33c 6239 1d3d 2e5d 19be
00000040: 24ef ab3c 35d0 963c 6c38 84bb 718c f73d
00000050: d9c5 60bd c19e 3cbd 4f94 743d e5a6 d33c
00000060: 1d7d 893b 19da 5f3c 3cad b93c 457e 843d
00000070: 8556 a1bc f79f 2b3d 85e7 253d c115 553d
00000080: 6602 5e3d 0f1b 64ba e38d 0f3c fb3b 12bd
00000090: 48f5 bc3b b1c6 593d 1b8d 35bd 7618 3abc
000000a0: bd93 393d 4eae a23d cc93 45bd 47eb b8bc
000000b0: 3aed 103c 978a 923d ec57 bdbb e095 bc3c
000000c0: e59e da3d 0c88 25bd 41c3 3f3a 1625 25bc
000000d0: f874 a93d 4191 773d 0316 67bc 9806 67bd
000000e0: 991c 57bd 8525 93bc e077 f53d ca9c 813d
000000f0: c559 183c 2fe5 353d 6e80 aebc 823e 7cbd
00000100: 2767 f03d 131f d2bd 97cd 42bc 775e 453d
00000110: 3c34 0dbd 9d56 cfbc f830 2d3d 2531 263c
00000120: f9f7 a6bd b0df 933d a38e 1b3d a121 4abd
00000130: 81ee 0cbd b0c2 4c3c 6909 3dbd e173 f63c
00000140: 76ec 56bc 1ffa 69bd e852 0fbc c0f3 acba
00000150: 1f08 113d cad7 8e3d 1965 bdbd 8c56 babd
00000160: 9153 a93d feac 183c c850 e23c 573c a2bd
00000170: b869 8dbd 565b 973d d8b1 3bbd e3fb 91bc
00000180: 1aeb ab3d c3de 0e3d a3df 753d 6516 783c
00000190: ed0d f4bd 54c2 193d 9f2e 1c3d 39dc 2dbc
000001a0: bab5 b83b 1fff 41bd 7d0b 19bd 8399 5d3d
000001b0: ec3e 4f3d 6e1e 24bb c1a6 93bd abc9 7bbd
000001c0: 9fab a1bd 9df0 413d c494 053e 7bcb 1d3c
000001d0: 23ed 99bd 8dd4 8ebc ded7 50bd 1322 243d
000001e0: 4f09 713c b7a7 383d 70d2 2dbd 0dd3 bc3d
000001f0: 2d8a d53d 027e 053d 514c cebd c5c9 09bc
00000200: c799 80bd 14b0 1b3d 8858 1f3e 7e55 eebd
00000210: f6a7 213e 9a6a 9b3d 0b97 e1bd c947 f7bd
00000220: 2c3f 3cbe 4228 9fbd 22ab 2dbd c60e d5bd
00000230: d24b 293e 4f94 ebbc 6fe8 37bd a8f8 1b3e
00000240: eacc 8bbd 4fe0 a0bc ba5f 053b 66ac b2bc
00000250: 4d80 e0bd bd9a cabd c5c8 75be 16b8 fa3d
00000260: f699 dbbd d498 ae3d c579 1bbd 8e7a cdbc
00000270: d618 abbd 359c 82bd 9ca8 98bc 318f 8bbd
00000280: 336b 513e dc71 823c 252d 3abd 8c18 05be
00000290: 569c a03b c193 ec3d 60de 25bd 2118 d43d
000002a0: cd21 05be 8d1f 6b3d 67fd e4b9 e416 3bbe
000002b0: da52 0e3e 1edd bdbd 0039 6fbd 0ea7 a23d
000002c0: 98bb 243d 027c 81bc 876f eb3d 557d ac3c
000002d0: 8f2a f4bc 092a e6bc 7a9e 233d fa32 1cbd
000002e0: f8e4 f0bd 229a 823d b34c 71be de1c 01be
000002f0: 7c0b c83d aff1 61bd 1537 a93d fecc f83d
00000300: 0032 6fbd fced 053c 965f fdbb 530e a1bd
00000310: ce6c c13c 45ca 423c 0681 7dbd 6706 37be
00000320: 29d1 023e 83c1 d8bd 6118 6f3d f35a d83d
00000330: a665 983e f73e 1f3c df4e 50bd 1a91 bf3d
00000340: 7776 803d 277f f9bd c62b e0bd b554 c6bd
00000350: a67b 9b3d 755e a03d 5594 0d3e 8a39 223d
00000360: 59fc 04be e908 ee3d a7a3 bebc 3529 a53d
00000370: 2165 053d 4c3b 0c3e 36f4 bb3d e50c a7bd
00000380: 9c88 673d f73d b5bd 42bf 7dbd 7b07 1d3d
00000390: a1d2 4ebc 9b33 3d3d 10ec 1d3d cfcf 6a3d
000003a0: bc49 87bd 12ef e9bb 6f3d bebc 83c9 8dbc
000003b0: 58ba 4bbd bfb3 5fbd ae54 293e 9d28 20be
000003c0: d6f2 70be b9ab 43bd 814b 89bc 1205 24be
000003d0: e01c 02bc aee6 533d a29c 653d 052d 543d
000003e0: 3ddf d53d 7ea6 5c3e d05b a13d 6d34 f63d
000003f0: c50e 4fbd 9825 af3d 3da0 a83d 5398 d3bd

param_7 f4 [1, 128]
-0.0045211343 0.009739587 0.009885564 0.019660559 -0.0011871274 0.018627465 -0.013580813 0.01335898
-0.0028382577 0.003704482 -0.010792738 -0.014771362 -0.016916096 0.008626873 -0.024278253 -0.006041385
-0.0040811086 0.015456623 -0.004824194 0.029266791 0.002874498 0.006642532 0.022052929 -0.0022898375
0.0015066611 0.0015423951 0.0110988375 0.013087197 -0.0011590221 0.009491151 0.00016779079 0.00846329
-0.0018457301 0.011868963 -0.032825157 0.017479766 -0.019813254 0.0099238 -0.021532532 -0.018294772
-0.024941824 -0.013002326 -0.006640668 0.0114045255 0.004760181 0.016227948 0.000530288 -0.018155297
-0.008993697 0.0007337503 0.03744567 -0.02443413 0.008867228 -0.021423638 0.019112403 -0.0069391243
0.002181566 -0.0070613995 -0.012865754 0.0024020732 0.0063629565 -0.011516725 0.0011037478 -0.02285356
-0.013357976 0.018055204 0.0024660707 -0.0143213095 0.012561341 0.010659412 -0.02500727 -0.009159928
-0.022555476 0.0016035123 0.008754719 -0.007878197 -0.0073297047 0.0031403932 -0.014059624 -0.01172095
-0.009289295 -0.014825358 0.006708873 0.012828505 -0.0216692 -0.0064187413 0.011306813 -0.011801953
-0.008626176 0.01962976 0.00011744123 0.007861699 0.017184908 0.0012737635 -0.004291536 0.018438896
0.010984946 0.009503802 0.013443624 -0.009798506 0.018186161 0.022609163 -0.0052176802 -0.016608384
0.016047094 0.0020268282 0.0030019097 -0.0053461045 0.00039721548 -0.017284514 0.00840352 0.017997934
0.005475986 0.008967359 0.023340898 -0.012369349 -0.009199719 -0.006198262 0.0045056287 -0.009137404
0.01713478 0.017682567 0.0045172386 -0.010943197 0.008060521 0.0070106834 -0.0025978447 -0.009588868
00000000: 0626 94bb ca92 1f3c 10f7 213c 2e0f a13c
00000010: 6399 9bba a098 983c 0f82 5ebc a0df 5a3c
00000020: 1002 3abb e5c6 723b 06d4 30bc 9503 72bc
00000030: a093 8abc ba57 0d3c 30e3 c6bc cff6 c5bb
00000040: d2ba 85bb c73d 7d3c 4614 9ebb e9c0 ef3c
00000050: 1362 3c3b 99a9 d93b 58a8 b43c 1911 16bb
00000060: 287b c53a 312a ca3a e6d7 353c af6b 563c
00000070: 54ea 97ba c680 1b3c fff0 2f39 9ca9 0a3c
00000080: 6dec f1ba 0a76 423c ac73 06bd ba31 8f3c
00000090: 684f a2bc 6f97 223c fe64 b0bc ebde 95bc
000000a0: cc52 ccbc b507 55bc f699 d9bb 0cda 3a3c
000000b0: 4bfb 9b3b 79f0 843c 0603 0b3a 6bba 94bc
000000c0: 4d5a 13bc 2659 403a a260 193d 162a c8bc
000000d0: da47 113c a080 afbc 9d91 9c3c 9861 e3bb
000000e0: 9bf8 0e3b 5063 e7bb e2ca 52bc 1a6c 1d3b
000000f0: 5980 d03b a5b0 3cbc a1ab 903a 6437 bbbc
00000100: 6adb 5abc 82e8 933c cd9d 213b eda3 6abc
00000110: 15ce 4d3c d0a4 2e3c 0cdc ccbc 8613 16bc
00000120: 43c6 b8bc f22c d23a f46f 0f3c 8e13 01bc
00000130: 052e f0bb 0ecf 4d3b 565a 66bc 3a09 40bc
00000140: 2132 18bc 0fe6 72bc 1bd6 db3b a62e 523c
00000150: 9b83 b1bc 4e54 d2bb 3640 393c fb5c 41bc
00000160: ce54 0dbc 97ce a03c c84a f638 5bce 003c
00000170: 5dc7 8c3c 69f4 a63a 03a0 8cbb 2b0d 973c
00000180: 34fa 333c d6b5 1b3c a542 5c3c ea89 20bc
00000190: 25fb 943c da36 b93c 13f9 aabb 4e0e 88bc
000001a0: 3275 833c 89d4 043b b0bb 443b 602e afbb
000001b0: 5c41 d039 4198 8dbc ebae 093c 6770 933c
000001c0: e66f b33b d4eb 123c 6935 bf3c cfa8 4abc
000001d0: 6bba 16bc ca1a cbbb f4a3 933b 0db5 15bc
000001e0: 3d5e 8c3c 08db 903c 5805 943b 184b 33bc
000001f0: 4710 043c e0b9 e53b 9a40 2abb a11a 1dbc
