07_Transformers/Shakespearian_model_0.npz (npz, 842338 bytes, 52 tensors)

param_0 f4 [64, 64]
0	0x3bf17cf3	0.0073696314
1	0xbc85292b	-0.016254982
2	0xbc617280	-0.013760209
3	0x3b8f0393	0.0043644398
4	0x3c52719c	0.012844469
5	0xbcb92411	-0.022600206
6	0x3c28da94	0.010306019
7	0x3cb70760	0.022342384
8	0x3c0e9f19	0.008704924
9	0xbbe5bb0d	-0.0070108236
10	0x3ce66fd0	0.028129488
11	0xbaa387e6	-0.0012476414
12	0xbc1a8e0b	-0.00943328
13	0xbc87aa34	-0.016560651
14	0x3c5f3fe4	0.013626073
15	0x3c751c44	0.014960352
16	0x3d171e0f	0.0368939
17	0x3964eeaa	0.00021832684
18	0xbc0a1980	-0.008428931
19	0x3c2f72bd	0.010708508
20	0x3d07db27	0.033167984
21	0xbd0513a1	-0.032489423
22	0x3c632122	0.01386288
23	0x3c401876	0.011724582
24	0xbc9e3661	-0.01931304
25	0xbb82bda9	-0.0039898944
26	0x3d591b8f	0.053004798
27	0xbc76feea	-0.015075425
28	0xbd0668d7	-0.032814827
29	0xbc9461db	-0.018113067
30	0xbc9138c7	-0.017727269
31	0x3ca9a14e	0.020706799
32	0xbc31e71b	-0.0108583225
33	0x3c6b5a11	0.014364735
34	0x3d4bbf78	0.049743146
35	0xba72e505	-0.0009265694
36	0x3c4ea047	0.012611455
37	0xbc2d82d8	-0.010590278
38	0xbb39aa04	-0.0028330097
39	0xbd51f35d	-0.05125748
40	0x3c97773d	0.018489474
41	0xbd0b856c	-0.034062788
42	0x3d22e189	0.03976587
43	0xbc93a4be	-0.018022891
44	0xbb1c76bb	-0.002387448
45	0x3d7969fa	0.060892083
46	0xbcb45571	-0.022013398
47	0x3bbeb3aa	0.0058197575
48	0x3d6b820e	0.057497077
49	0x3c79d3cf	0.015248253
50	0xbd39fc70	-0.04540676
51	0x3bddc647	0.0067680213
52	0x3c232434	0.009957362
53	0xbc91b618	-0.017787024
54	0xbcae2804	-0.021259315
55	0xbd46a7dc	-0.048499927
56	0x3c6c9c38	0.014441542
57	0xbcc3cca8	-0.023901299
58	0x3baead22	0.0053306976
59	0x3bf61f73	0.0075110733
60	0xbc23c6e4	-0.00999615
61	0xbc5948f9	-0.013262027
62	0x3cf4413e	0.029816266
63	0xbd3d504b	-0.04621915
64	0xbbd5fba4	-0.006530242
65	0xbc830751	-0.0159947
66	0x3bc1b41b	0.005911363
67	0x3c7a584d	0.015279842
68	0xbb27c337	-0.0025598535
69	0x3c76e068	0.015068151
70	0xbc9b9dd3	-0.018996155
71	0xbbcea47a	-0.006306228
72	0xbd2043a8	-0.039127022
73	0xbcb3ba08	-0.021939293
74	0xbcc7ffbc	-0.024413936
75	0xbd39cdd6	-0.045362316
76	0xbd060306	-0.032717727
77	0xbba66f42	-0.005079181
78	0xbc81d2ef	-0.015847651
79	0x3c28dff8	0.010307305
80	0xbc9d7fef	-0.019226043
81	0x3c5b5b3c	0.013388451
82	0x3c3ebf94	0.0116423555
83	0x3c865cca	0.016401667
84	0xbd0e9df3	-0.0348186
85	0x3c61f103	0.013790372
86	0xbcd95e64	-0.026534267
87	0xbd4e82cf	-0.050417718
88	0xbc8245db	-0.01590245
89	0xbd047a94	-0.032343462
90	0x3cdbc41f	0.026826916
91	0xbb4a1bc7	-0.003083931
92	0x3cf54df9	0.029944407
93	0x3b7a8418	0.0038225707
94	0x3bc5b2f3	0.0060332953
95	0x3c891439	0.016733276
96	0x3cbd2035	0.023086647
97	0xbbf074d8	-0.0073381476
98	0xbc224dfe	-0.00990629
99	0xbcc58cfd	-0.02411508
100	0xbc8e12b8	-0.01734291
101	0x3ccce6de	0.02501243
102	0x3d159bf7	0.036525693
103	0xbcd09645	-0.02546228
104	0x3b03a638	0.0020088088
105	0x3b6cc199	0.0036126135
106	0x3c88d4bd	0.016703004
107	0xbc0bd4ea	-0.008534649
108	0xbcee42a6	-0.029084515
109	0xbcb49a44	-0.022046216
110	0x3ceb84d7	0.028749866
111	0x3d0819f2	0.03322787
112	0xba1bcfb7	-0.00059437327
113	0x39e35750	0.00043361867
114	0xbc8c502e	-0.017128076
115	0x3ce25537	0.027628524
116	0x3c44b9b5	0.012007167
117	0x3c497213	0.012295264
118	0xbc8dc236	-0.017304521
119	0x3cbac9ef	0.022801368
120	0x3d21caa9	0.039499912
121	0x3d553452	0.05205185
122	0x3d2178e9	0.03942195
123	0xbd1f69dc	-0.038919315
124	0x3d04daae	0.03243511
125	0xbcf839b2	-0.030300949
126	0xba6a9803	-0.0008949043
127	0xba73e13c	-0.0009303277
128	0xbcc27b29	-0.023740368
129	0xbce5d39e	-0.028055009
130	0xbc046398	-0.008080386
131	0xbb94d839	-0.0045423773
132	0x3c78e465	0.015191172
133	0xbc23ad18	-0.009989999
134	0xbbe3e565	-0.006954836
135	0x3d206318	0.039157003
136	0x3d0556de	0.032553546
137	0x3cb7dd19	0.022444295
138	0x3c826860	0.01591891
139	0x3cf0928e	0.029366758
140	0x3cb7584a	0.022380967
141	0xbccf1370	-0.025277823
142	0x3bf34097	0.007423471
143	0x3c92671e	0.017871436
144	0x3c91c471	0.017793866
145	0xbd373a71	-0.04473347
146	0xbba78a90	-0.0051129535
147	0x3ca2c39e	0.019868668
148	0x3cea56b6	0.0286058
149	0x3ba75a56	0.0051072044
150	0x3d6d9675	0.058004815
151	0x3c41e901	0.011835338
152	0x3c1d47dc	0.009599652
153	0x3d032106	0.032013915
154	0x3cacaf51	0.021079691
155	0xbb2f953d	-0.0026791834
156	0xbcbc199e	-0.022961434
157	0x3cb2b8d8	0.021816656
158	0xbc1a0859	-0.009401404
159	0xbc464c81	-0.012103201
160	0x3c97fd3a	0.018553365
161	0xbb1daa65	-0.0024057862
162	0xbccda20a	-0.02510168
163	0xbb09c3df	-0.002102129
164	0x3c64c894	0.013963837
165	0x3b19b57f	0.0023454127
166	0x391d2e0e	0.00014989843
167	0xbc5ecae9	-0.013598182
168	0x3c7f19e4	0.015570138
169	0xbd04b761	-0.032401446
170	0x3cc75143	0.02433074
171	0xbcfa9248	-0.03058733
172	0xbd092c79	-0.033489678
173	0x3c371d83	0.01117647
174	0xbb8c8e1b	-0.004289401
175	0x3bc94bb3	0.0061430573
176	0xbcfcac02	-0.030843738
177	0xbc8c1bd9	-0.017103123
178	0x3cb5db86	0.022199403
179	0xbcd89e81	-0.026442768
180	0x3c4704d3	0.012147146
181	0xbc502714	-0.012704629
182	0x3b1dee1e	0.0024098228
183	0xbca3c648	-0.019992009
184	0x3b688dc4	0.003548489
185	0xbcc0d696	-0.023539823
186	0xbbcbd160	-0.006220028
187	0xbc1ffcfe	-0.009764908
188	0xbc0409d6	-0.008058986
189	0x3c2704f4	0.010194052
190	0x3d343744	0.043998018
191	0xbb58ad13	-0.0033062145
192	0xbc2328a0	-0.009958416
193	0x3c146b35	0.009058763
194	0xbc554a04	-0.013018135
195	0xbd9e44c0	-0.07727957
196	0x3bcf6f4b	0.006330406
197	0x3b158b78	0.0022818726
198	0xbc41fb34	-0.011839677
199	0xbc4af239	-0.012386852
200	0x3c106f50	0.0088156015
201	0x3c016d8e	0.007899655
202	0x3c96fc3c	0.018430822
203	0x3c24031f	0.01001051
204	0xbc9fa94d	-0.019489909
205	0x3caa7bef	0.02081105
206	0xbd1453ab	-0.036212604
207	0x3cb543a4	0.02212698
208	0x3bae1720	0.0053128153
209	0xbc08a510	-0.008340135
210	0xbcd02bd6	-0.025411528
211	0xbd4714c7	-0.0486038
212	0x3c40aaf3	0.0117595075
213	0x3c1794cf	0.009251787
214	0xbd2da0d2	-0.0423897
215	0xbd882fcc	-0.066497415
216	0xbca8da3f	-0.02061188
217	0xb9f3eadb	-0.00046523553
218	0xbb27dfa1	-0.002561547
219	0x3ba09226	0.0049002348
220	0x3cf6439c	0.030061536
221	0xbc9536b5	-0.018214563
222	0x3c49f342	0.012326064
223	0x3d09e0b9	0.033661578
224	0xbcc057b1	-0.023479315
225	0x3caa0506	0.020754348
226	0x3c6077e8	0.013700463
227	0x3c4cb681	0.012494684
228	0x3d353a56	0.044245087
229	0x3cbe20ae	0.023208942
230	0x3d690d0b	0.056897204
231	0xbd1ad66f	-0.037802156
232	0x3c0d9dd6	0.008643588
233	0x3c54eda1	0.012996108
234	0x3cd83f9f	0.026397524
235	0xbb86efa1	-0.0041179215
236	0x3ccbdc1b	0.024885228
237	0x3bbca3f9	0.0057568518
238	0x3cf58de7	0.02997489
239	0xbcf6cfe5	-0.030128429
240	0xbb4fdc0b	-0.003171685
241	0xba0b1770	-0.00053059217
242	0xbd1a2ef7	-0.037642445
243	0x3d66605e	0.056244247
244	0x3cb0185e	0.021495994
245	0x3cc97e6b	0.024596414
246	0xbb919ecb	-0.0044439784
247	0x3cb98028	0.022644117
248	0xbcf8f047	-0.03038801
249	0xbc31198e	-0.010809315
250	0x3bef64e0	0.0073057264
251	0x3cae5a13	0.021283185
252	0x3c3b139a	0.011418248
253	0x3d3bb1c7	0.04582384
254	0xbc5897f7	-0.013219825
255	0xbb03e0c8	-0.0020122994

param_1 f4 [64, 64]
0	0x3c8cab89	0.017171638
1	0xbc393e23	-0.011306318
2	0x3ca1b114	0.019737758
3	0xbcc80fba	-0.024421562
4	0xbc8357ea	-0.016033132
5	0x3bc09a4a	0.0058777677
6	0x3c95be15	0.018279115
7	0x3d0aa7c2	0.033851393
8	0x3cbb4d7f	0.022864101
9	0x3c8b1105	0.016975889
10	0x3c59ba3b	0.01328903
11	0x3cf8be69	0.030364232
12	0x3d17c10e	0.037049346
13	0xbbd2180e	-0.006411559
14	0x3ce1814e	0.027527478
15	0x3d1c5b84	0.038173214
16	0xbb881dde	-0.004153951
17	0x3cdaff51	0.026733072
18	0x3c488380	0.012238383
19	0x3c170ec4	0.009219829
20	0x3924f462	0.00015731298
21	0x3b5e07d4	0.0033879178
22	0xbd0cedfc	-0.034406647
23	0xbceeaf87	-0.029136432
24	0xbc07f72b	-0.0082986755
25	0x3c5a4f5b	0.013324584
26	0xbc7cdef2	-0.015434014
27	0x3c3b47e5	0.011430715
28	0x3c040300	0.008057356
29	0xbd327633	-0.043569755
30	0x3d0450ac	0.032303497
31	0x3c83296a	0.016010959
32	0xbbb9941a	-0.005663407
33	0x3bae5e2c	0.0053212848
34	0x3be05382	0.0068458924
35	0xbcae966f	-0.021311967
36	0xbb8772de	-0.0041335663
37	0x3ca6d2c9	0.020364182
38	0x3d559022	0.05213941
39	0xbd320d22	-0.043469556
40	0xbd049d39	-0.0323765
41	0x3c504158	0.012710892
42	0xbd04d63d	-0.032430876
43	0x3c1ce7ba	0.009576732
44	0xbb246822	-0.0025086482
45	0x3d68da42	0.056848772
46	0xbd668435	-0.056278426
47	0x3cf8c1cd	0.030365849
48	0xbd357710	-0.044303
49	0x3b907361	0.0044082855
50	0xbc397a3d	-0.011320648
51	0x3c86d7b2	0.016460273
52	0x3b7959ce	0.0038047913
53	0xbcd1a655	-0.025592009
54	0x3b7d2e49	0.0038632324
55	0x3c04805b	0.008087243
56	0xbc408975	-0.011751522
57	0x3cfca04b	0.030838152
58	0x3cbb8412	0.022890124
59	0xbd04c997	-0.032418814
60	0xbcfb4413	-0.030672109
61	0xbd06e11f	-0.032929536
62	0xbc2af8a6	-0.010435259
63	0xbc7c1d69	-0.015387871
64	0xbc3a7fc4	-0.011383001
65	0x3b43d143	0.0029879368
66	0x3cb6e566	0.022326183
67	0x3b853973	0.0040656864
68	0xbcb95e9a	-0.022628117
69	0x3c9c0456	0.019045036
70	0x3cb6afed	0.022300685
71	0x3bd6cc14	0.0065550897
72	0x3cd6f3a7	0.02623923
73	0x3a90b00d	0.0011038795
74	0xbbe83fbe	-0.007087677
75	0x3d06f0d8	0.03294453
76	0x3ccec2a0	0.025239289
77	0xbd13a43a	-0.03604529
78	0xbc7935d0	-0.015210584
79	0xbc0546a8	-0.008134522
80	0xbcf7e782	-0.030261759
81	0xbccbe9d0	-0.024891764
82	0xbbdc655b	-0.0067259497
83	0x3ca0996b	0.019604405
84	0x3c98de42	0.018660668
85	0xbd00e31f	-0.0314666
86	0x3d10a0d9	0.035309646
87	0x3d2776d3	0.040884804
88	0xbc5cf789	-0.013486751
89	0xbbd4b996	-0.00649185
90	0x3c74e518	0.014947198
91	0x3bb7ec09	0.0056128544
92	0xbd110ca0	-0.03541243
93	0x3c376458	0.011193357
94	0xbc86199f	-0.016369639
95	0xbce4d5aa	-0.027933914
96	0x3c9f5383	0.019449001
97	0x3ce9df70	0.028548926
98	0xbc1c653a	-0.009545619
99	0xbc042af4	-0.008066881
100	0x3d1bcd86	0.0380378
101	0x3d312b74	0.04325433
102	0x3d2d443f	0.042301413
103	0xbcd54db7	-0.026038034
104	0xbd3522ee	-0.044222765
105	0xbc3c1ede	-0.011481969
106	0x3d01e02a	0.03170792
107	0x3cd3b5b2	0.025843475
108	0xbc3c3386	-0.0114868935
109	0x3ca05fd7	0.01957695
110	0x3d66fef7	0.056395497
111	0x3c94574e	0.018108036
112	0x3d804116	0.06262414
113	0x3d6df8a7	0.05809846
114	0xbd32b7cd	-0.043632317
115	0x3c846ee8	0.016166165
116	0x3cda3cea	0.026640374
117	0xbd25578a	-0.040366687
118	0x3cd7255d	0.026262933
119	0x3cc8ff6a	0.024535853
120	0x3d3bfd85	0.045896072
121	0x3c15bdfe	0.009139536
122	0x3d10e2c2	0.035372503
123	0x3bd6b045	0.0065517747
124	0xbd279f8e	-0.040923648
125	0x3c1c8ff2	0.009555804
126	0x3bc560c4	0.0060234983
127	0x3c4ca694	0.012490887
128	0x3b816bd8	0.0039496236
129	0xbb741b5b	-0.003724775
130	0x3ce84a37	0.0283557
131	0xbb032215	-0.0020009328
132	0xbb0a3ad6	-0.0021092198
133	0x3c2c2cb0	0.010508701
134	0x3c47c6c2	0.012193384
135	0xbc70b08d	-0.0146905305
136	0x3b1dbd22	0.002406903
137	0xbba3a6b7	-0.004994239
138	0x3bd2bdfc	0.0064313393
139	0x3cd90de3	0.02649588
140	0x3c87b67c	0.016566508
141	0xbc5ade42	-0.013358654
142	0xbac300f8	-0.0014877608
143	0xbcd74f21	-0.026282849
144	0x3d63ef28	0.055648
145	0x3b31628f	0.0027066802
146	0x3a6543ef	0.00087457796
147	0xbcc83916	-0.024441283
148	0x3ac148ba	0.0014746406
149	0xbb95568b	-0.004557436
150	0xbc0327cc	-0.008005094
151	0x3c17d860	0.009267896
152	0xbcd68bdc	-0.026189737
153	0xbc76c50f	-0.015061631
154	0xbc5aa051	-0.0133438865
155	0xbc33cc7b	-0.010974045
156	0xbc2daee0	-0.0106007755
157	0xbcff7f8a	-0.031188745
158	0xbad37bd2	-0.0016134924
159	0x3c1a0361	0.00940022
160	0xb935608b	-0.0001729747
161	0x3c765989	0.015035995
162	0x3d97d353	0.07413354
163	0x3cf29202	0.029610638
164	0xbc76743e	-0.015042363
165	0x3ce813ae	0.028329697
166	0x3cc45dc1	0.023970487
167	0x3bb51917	0.0055266726
168	0xbd584b15	-0.05280598
169	0xbc177a23	-0.009245428
170	0x3c8deb4f	0.017324118
171	0xbb98a4e2	-0.0046583274
172	0xbd27e293	-0.040987562
173	0x3be8ebae	0.0071081733
174	0xbc88b4de	-0.016687807
175	0x3a032903	0.00050033646
176	0x3b02159e	0.001984931
177	0xbcc1c187	-0.023651851
178	0xbd0cdfd2	-0.03439314
179	0x3d740c01	0.05958176
180	0xbc7b6565	-0.015343999
181	0xbcf44c20	-0.029821455
182	0xbd3e7c65	-0.04650535
183	0x3c62bb4e	0.013838602
184	0x3c50c26e	0.012741668
185	0x3c1f07d6	0.009706458
186	0x3bf9b260	0.007620141
187	0x39a849ed	0.00032098536
188	0xbba6c040	-0.005088836
189	0xbb8b5a4d	-0.004252708
190	0xbc32054b	-0.01086552
191	0x3b733c99	0.0037114976
192	0xbbf4803d	-0.0074615763
193	0x3ca0851e	0.019594725
194	0x3ca30925	0.019901821
195	0x3c8459e8	0.016156152
196	0x3bfd6fd9	0.0077342805
197	0xbc8eb6fe	-0.017421242
198	0xbbc78608	-0.006088976
199	0xbc6d2e00	-0.014476299
200	0xbcdcd662	-0.026957694
201	0xbb95c238	-0.004570272
202	0x3ac281e8	0.001483974
203	0xbb9ec539	-0.004845288
204	0x390b2a44	0.00013271818
205	0xbc9720d6	-0.018448275
206	0x3c899289	0.016793506
207	0x3c6e0d07	0.014529473
208	0xbb6bc677	-0.0035976449
209	0xbc978394	-0.018495359
210	0xbbee32c6	-0.0072692363
211	0x3d51da91	0.05123383
212	0xbc4fb21f	-0.012676745
213	0x3cbf4621	0.02334887
214	0xbc5ccb20	-0.013476163
215	0xbc21affd	-0.009868619
216	0xbc90c2e7	-0.017671062
217	0xbb9edf96	-0.004848431
218	0xbd728dee	-0.059217386
219	0x3ba01236	0.0048849834
220	0x3d3b419e	0.045716874
221	0xbc419ef7	-0.011817685
222	0x3ce610a5	0.028084109
223	0xbb09dba9	-0.0021035469
224	0x3bbe06ba	0.0057991417
225	0xbcf49a07	-0.029858602
226	0xbd3def97	-0.04637107
227	0xbcf80618	-0.030276343
228	0x3cc4bb0d	0.024014974
229	0xbccd5699	-0.025065707
230	0x3b468447	0.0030291246
231	0x3ce2aae1	0.027669372
232	0x3ce08ec7	0.027411832
233	0x3bb78d02	0.0056015262
234	0xbc8c599b	-0.017132571
235	0x39ec9fc3	0.0004513246
236	0x3c343fed	0.011001569
237	0xbad8a467	-0.0016528488
238	0x3cafc9a3	0.021458453
239	0xbc6a6d40	-0.014308274
240	0x3c68b23c	0.014202651
241	0x3c9c91f0	0.019112557
242	0xbc091696	-0.008367201
243	0xbd091ef9	-0.033476803
244	0xbd3957cc	-0.045249745
245	0x3c1bf71a	0.009519363
246	0x3d30db8e	0.043178134
247	0xbd1de0cc	-0.03854446
248	0xba8b0cdd	-0.0010608692
249	0xbc28e3d0	-0.010308221
250	0x3bfbaef5	0.0076807686
251	0xbc717279	-0.014736765
252	0xbd530854	-0.051521614
253	0xbb057840	-0.0020365864
254	0x3c25c7a8	0.010118403
255	0xbc268e3d	-0.010165748

param_2 f4 [64, 64]
0	0x3cde3172	0.027123187
1	0x3c591af6	0.013251057
2	0xbc5cdf9f	-0.01348105
3	0x3d03a32a	0.032138027
4	0x3d0472e5	0.032336134
5	0xbbe4f3c7	-0.0069870683
6	0x3c7dce62	0.0154911
7	0x3cb26040	0.021774411
8	0x3d09ec76	0.033672772
9	0xbd049fed	-0.03237908
10	0x3c5745fd	0.013139245
11	0x3c2445a7	0.010026372
12	0x3cefcd9d	0.029272849
13	0x3d126bb5	0.03574725
14	0xba8eb4e2	-0.0010887648
15	0x3c161f0d	0.0091626765
16	0x3b7ebd85	0.0038870287
17	0xba891ba4	-0.0010460508
18	0xbd00e53a	-0.031468607
19	0xbab34d69	-0.0013679686
20	0x3b9bab4e	0.0047506457
21	0xbd0a6141	-0.033784155
22	0x3c3c8181	0.0115054855
23	0xbc44c445	-0.012009685
24	0x3bd3916d	0.006456545
25	0x3b93233a	0.0044902833
26	0x3cb7504b	0.022377154
27	0xbc864400	-0.016389847
28	0xbb3b0f15	-0.0028542925
29	0xbb8cfd39	-0.0043026474
30	0xbc04215b	-0.008064593
31	0x3b9ef182	0.0048505673
32	0x3c1ed09c	0.009693291
33	0x3c8ef380	0.017450094
34	0xbc4ddedc	-0.012565341
35	0x3c65ce63	0.014026257
36	0x3c81a8d6	0.015827578
37	0xbcede980	-0.029042006
38	0x3c449db0	0.012000486
39	0xbcb7b753	-0.022426283
40	0x3c017efc	0.007903811
41	0xbc07f14d	-0.008297277
42	0xbd0960c4	-0.03353955
43	0xbcc6f851	-0.024288328
44	0x3c917ebb	0.017760625
45	0x3c97ecb5	0.018545488
46	0x3ae07fe2	0.0017127956
47	0xbcd49b8d	-0.025953079
48	0xbccef22f	-0.025261967
49	0xbcf74ca2	-0.030187909
50	0x3c990393	0.018678462
51	0x3cf395a4	0.02973444
52	0xbb3decce	-0.0028980258
53	0x3b6e0614	0.003631954
54	0xbcb2cbaf	-0.02182564
55	0xbc9caa64	-0.019124217
56	0x3c8b5d68	0.017012313
57	0xbcfe3ade	-0.03103393
58	0xbb6a382d	-0.003573905
59	0xbbff1164	-0.0077840555
60	0xbbc7b042	-0.0060940096
61	0x3b75915f	0.003747068
62	0x3d0e440b	0.03473286
63	0xbc868785	-0.016422043
64	0x3cc4df9d	0.024032408
65	0x3d03aa47	0.03214481
66	0x3c35cd15	0.011096259
67	0x3c29e1b9	0.010368758
68	0xbc7d1827	-0.015447653
69	0xbc71ed02	-0.01476598
70	0x3cdf724a	0.027276177
71	0xbb2d2e1b	-0.0026425186
72	0xbc93cdf7	-0.018042548
73	0x3d32c1ce	0.043641858
74	0xbcbc92aa	-0.023019154
75	0x3a94bc1b	0.0011347564
76	0x3a05ef6d	0.00051092246
77	0xbcc445d5	-0.02395908
78	0x3ca4a244	0.020096906
79	0xbc4b6f3f	-0.01241666
80	0xbbcae82f	-0.006192229
81	0x3c9546b2	0.018222187
82	0x3cd628ce	0.026142504
83	0x3caa229e	0.02076846
84	0xbc057fcd	-0.008148146
85	0x3b484563	0.0030558936
86	0xbbb7bbb6	-0.0056070937
87	0x3c1e1e39	0.00965076
88	0xbc524ba1	-0.012835414
89	0xbbb09c7e	-0.005389749
90	0x3d57e679	0.05271003
91	0x3cf7ee61	0.030265035
92	0x3abbc627	0.0014326022
93	0x3d0afc51	0.033932034
94	0x3c850b16	0.016240638
95	0x3ca8d7b5	0.02061067
96	0xbb4f6512	-0.0031645936
97	0x3ae363e8	0.00173485
98	0x3cdba474	0.026811816
99	0xbcac6125	-0.021042416
100	0x3c60e946	0.013727492
101	0xbc953282	-0.01821256
102	0x3b906935	0.004407073
103	0xbc9c95b2	-0.019114349
104	0x3d603fdc	0.0547484
105	0xbd2006ff	-0.039069172
106	0xbcac228d	-0.021012569
107	0xbc973a84	-0.01846052
108	0xbb9ecdb2	-0.004846298
109	0xbc3b8e7d	-0.011447546
110	0xbc0a7d73	-0.008452761
111	0xbd2af47e	-0.041737072
112	0xbaa5a6a7	-0.0012638167
113	0x3c13953d	0.009007749
114	0x3bb88c4c	0.005631959
115	0x3d079a01	0.033105854
116	0xbc9f0c5d	-0.019415075
117	0x3ca08f57	0.0195996
118	0x3c1d3eb2	0.009597467
119	0xbc016953	-0.007898646
120	0x3b9c097b	0.0047618723
121	0xbb085bf2	-0.0020806757
122	0x3ba0be94	0.004905531
123	0xbd567ce7	-0.05236521
124	0xbcb2f7c2	-0.021846656
125	0x3c0da21d	0.008644608
126	0x3c0f2136	0.008735945
127	0x3c759da3	0.014991197
128	0x3c11b524	0.008893285
129	0xbcb249cf	-0.02176371
130	0x3bcd575f	0.006266519
131	0x3d10da10	0.03536421
132	0x3d0c8894	0.03430994
133	0xbb09351c	-0.0020936197
134	0xbba75c9b	-0.005107475
135	0x3c4b95aa	0.012425819
136	0xbc17c82a	-0.009264031
137	0xbc6c64e7	-0.014428354
138	0xbc83b372	-0.016076777
139	0xbcc9042f	-0.024538128
140	0x3c488a68	0.01224003
141	0x3d0e188a	0.03469137
142	0x3b9b63ed	0.0047421367
143	0x3ca67d86	0.020323526
144	0xbc2c09a9	-0.01050035
145	0x3c48b2f4	0.012249697
146	0x3c7fc474	0.015610803
147	0x3bf0b0d2	0.0073452974
148	0x3adfb6d7	0.001706804
149	0x3cb71ca3	0.022352522
150	0x3d030a54	0.03199227
151	0x3b3bada2	0.0028637429
152	0x3c4797a7	0.012182153
153	0xb9864cb2	-0.00025615614
154	0xbb236ad1	-0.0024935494
155	0x3cc59709	0.02411987
156	0xbc283c00	-0.010268211
157	0x3c23e434	0.010003138
158	0x3c0aec2a	0.008479157
159	0x3ca6a021	0.020340027
160	0xbbc705ea	-0.006073703
161	0x3cafdaf1	0.021466704
162	0x3cd2811b	0.025696328
163	0xbc7edf5e	-0.015556185
164	0x3c9547c2	0.018222693
165	0xbcdcfeac	-0.026976906
166	0xbce3257d	-0.027727837
167	0x3cdd873e	0.027042028
168	0xbd0ac40d	-0.033878375
169	0xbccd6640	-0.02507317
170	0xbb52443f	-0.0032084135
171	0x3b0efbe1	0.0021817612
172	0xbbacf7b6	-0.005278553
173	0xbc75d692	-0.015004771
174	0xbc949641	-0.018138053
175	0x3cb3053e	0.021853086
176	0x3bdfafc0	0.006826371
177	0x3ccdd753	0.025127089
178	0xbce1b5cc	-0.027552508
179	0xbba34cd7	-0.0049835253
180	0x3cb991df	0.022652565
181	0xbc4e9003	-0.012607577
182	0x38b26107	8.505774e-05
183	0xbc30b746	-0.010785883
184	0xbc0ea7ea	-0.008707026
185	0xbc8d1336	-0.017221075
186	0xbc67f10b	-0.01415659
187	0x3cba6cad	0.022756899
188	0x3c3c48ce	0.011491967
189	0x3bc4a8be	0.006001561
190	0x3c1e5cce	0.009665681
191	0xbcc77691	-0.024348529
192	0x3d206f5a	0.039168693
193	0xbc6972aa	-0.014248529
194	0xbb330348	-0.0027315188
195	0x3bf4d81d	0.007472052
196	0x3ad448a9	0.0016195971
197	0x3c362a63	0.011118504
198	0x3ab72279	0.0013972066
199	0x3d024d1f	0.03181183
200	0x3b900e23	0.0043962165
201	0xbc487567	-0.012235022
202	0x3c07574e	0.008260561
203	0x3ca8c10b	0.020599863
204	0xbc9d95a7	-0.019236399
205	0x3c014149	0.0078891
206	0x3b808ded	0.003923169
207	0x3d048d4e	0.03236132
208	0xbb903b0b	-0.0044015697
209	0xbc9d1d53	-0.019179022
210	0xbcfa5b6d	-0.030561173
211	0x3c74d72c	0.014943879
212	0xbd219adc	-0.039454326
213	0x3ca5f301	0.020257475
214	0xbc8639b0	-0.01638493
215	0x3c3d3503	0.0115482835
216	0x3ce4322d	0.027855957
217	0xbc8eec79	-0.017446743
218	0x3cfb3fe1	0.030670108
219	0x3c8b184b	0.016979357
220	0xbc34014d	-0.010986638
221	0x3d03ac5d	0.0321468
222	0x3d240155	0.040040333
223	0xbcce0e19	-0.025153207
224	0x3b668675	0.0035175357
225	0x3d4ac12a	0.04950062
226	0x3c81195d	0.015759164
227	0xbcdf1998	-0.027233884
228	0x3cf2327a	0.029565085
229	0xbc99acc2	-0.018759135
230	0x3bf4c97d	0.0074703083
231	0xbc1dc724	-0.009629998
232	0x3bd68c77	0.0065475064
233	0x3cb620d4	0.02223245
234	0xbca20bad	-0.019780958
235	0xbc134337	-0.008988193
236	0xbd003b88	-0.031306773
237	0xbc77302c	-0.015087169
238	0x3c892899	0.016742991
239	0x3c3241f3	0.010879981
240	0xbba7fd2f	-0.0051266174
241	0x3cdc40ef	0.026886432
242	0xbcb1ba31	-0.021695228
243	0x3b807b3c	0.0039209407
244	0x3c81d19a	0.015847016
245	0x3cb961c6	0.02262963
246	0x3cb2302f	0.021751491
247	0xbcf6e411	-0.030138047
248	0x3bf6ec07	0.007535461
249	0x3c1aeee4	0.00945637
250	0x3c1363a6	0.008995926
251	0xbb9ab68f	-0.0047214697
252	0xbb94d42c	-0.0045418944
253	0xbcda1aa6	-0.026624035
254	0x3bd23641	0.006415159
255	0xbc7cfda7	-0.015441335

param_3 f4 [64, 64]
0	0xbbaee999	-0.0053379056
1	0xbc72c442	-0.014817299
2	0x3c932bbc	0.01796519
3	0x3bf7beff	0.0075606103
4	0x3c07f887	0.008299
5	0x3cc27c7b	0.023740998
6	0xbc8fc15c	-0.017548256
7	0xbc99d98a	-0.018780489
8	0xbc452ab4	-0.012034107
9	0xbcdf3060	-0.027244747
10	0xbbdfe01f	-0.0068321372
11	0x3c16efb8	0.009212427
12	0x3c9fea36	0.01952086
13	0x3c024ff6	0.0079536345
14	0x3cfa5043	0.03055585
15	0xba314d26	-0.000676351
16	0xbaf083e0	-0.0018349849
17	0xbbad2ed0	-0.0052851215
18	0x3d3d0a52	0.04615242
19	0x3c824412	0.0159016
20	0x3b57d832	0.003293526
21	0x3c6cfae9	0.0144641185
22	0x3c696d0c	0.01424719
23	0xbcffba45	-0.03121675
24	0xbbc43ab2	-0.0059884423
25	0x3cc46349	0.023973124
26	0xbd0a0439	-0.033695433
27	0x3c5dd7cc	0.0135402195
28	0x3b982634	0.004643226
29	0x3ce72b0c	0.028218769
30	0x3cb8961e	0.022532519
31	0x3ca896c7	0.020579709
32	0xbc86cf86	-0.016456377
33	0xbb25c3ba	-0.0025293664
34	0x3d0b8906	0.034066223
35	0xbb8d7aad	-0.0043176026
36	0xbc2cda42	-0.010550084
37	0x3c2caaf2	0.010538803
38	0x3ce8ea82	0.028432135
39	0xbcdb97a9	-0.026805716
40	0x3c987beb	0.018613776
41	0x3c8d79cb	0.01726999
42	0x3bb251d7	0.005441885
43	0x3bd1a2fc	0.006397603
44	0x3a930410	0.0011216421
45	0x3cff10b1	0.031135889
46	0xbace81af	-0.0015755201
47	0x3ba4a803	0.0050249114
48	0x3c6746d1	0.014116005
49	0xbcd0a2bd	-0.025468225
50	0xbd18f6b8	-0.037344664
51	0xbcec6795	-0.028857986
52	0x3d02cba8	0.031932503
53	0xbb91398c	-0.004431909
54	0x3c8aaeef	0.016929118
55	0xbc9e07d3	-0.01929084
56	0xbbee4640	-0.007271558
57	0x3c0c8923	0.008577618
58	0xbc550e0c	-0.013003837
59	0x3cd3eb4d	0.025869036
60	0x3ceb5ec5	0.028731713
61	0xbca9b107	-0.020714296
62	0xbcc3a9b2	-0.023884628
63	0x3d025109	0.031815562
64	0x3c8cc542	0.017183904
65	0x3c04df51	0.008109883
66	0xbc82b8fc	-0.015957348
67	0xbd038f9e	-0.032119386
68	0x3ca16656	0.019702118
69	0xbd4837e9	-0.048881445
70	0xbcbe9871	-0.02326605
71	0x3c81f50b	0.015863916
72	0xbd0ebd5b	-0.034848552
73	0x3b866953	0.004101911
74	0x3bce58e0	0.006297216
75	0xbc883139	-0.016625034
76	0xbacfcf38	-0.0015854603
77	0xbc1f03dd	-0.009705511
78	0x3c84c9da	0.016209532
79	0xbcaa9091	-0.020820888
80	0x3b731aaa	0.003709475
81	0xbcc9e12e	-0.024643507
82	0x3d2ca8f7	0.042153325
83	0xbb192349	-0.002336698
84	0xbbf0761e	-0.0073382994
85	0xbb14734b	-0.0022651728
86	0x3c2c55c2	0.010518493
87	0x3c59b63c	0.013288077
88	0xbb022470	-0.0019858144
89	0xbb4b4eaf	-0.003102224
90	0x3c94804e	0.018127587
91	0x3c9edec1	0.019393327
92	0x3d1a41dd	0.03766047
93	0x3c26f053	0.010189134
94	0x3cc2c47b	0.02377533
95	0xbcecab78	-0.028890356
96	0x3c384b72	0.011248456
97	0x3c15b8c7	0.009138293
98	0xbd3d3c38	-0.046200007
99	0xb9f90502	-0.00047496712
100	0xbcf91f85	-0.030410537
101	0xbca305d6	-0.019900244
102	0xbc136673	-0.008996594
103	0xbc366dbd	-0.011134562
104	0xbc95e65e	-0.018298324
105	0x3bdd83f0	0.006760113
106	0xba2b41c0	-0.000653293
107	0xbb07e75b	-0.0020737264
108	0xbd6c8291	-0.057741705
109	0x3c5ff2cd	0.013668728
110	0xbb6d803b	-0.0036239761
111	0x3cb26065	0.02177448
112	0xbcc73ac3	-0.024320012
113	0xbcc165f4	-0.023608185
114	0x3a93672a	0.0011245955
115	0xbd152bf2	-0.036418863
116	0xbbcadbb7	-0.006190743
117	0xbc2da7c7	-0.010599083
118	0x3b719c21	0.0036866742
119	0xbc35899a	-0.01108017
120	0xbba5b7db	-0.0050573177
121	0x3c5590be	0.0130349975
122	0x3b647848	0.0034861732
123	0xbc56b42d	-0.013104481
124	0x3c2c6726	0.010522639
125	0x3c8c0822	0.017093722
126	0xbbb2b4ab	-0.005453666
127	0x3b2043e6	0.0024454533
128	0x3c9cf6e3	0.019160694
129	0x3c90f223	0.017693585
130	0xbb8488b2	-0.0040446157
131	0xbc04261c	-0.008065727
132	0xbc5e1e60	-0.013557047
133	0x3c98b33a	0.01864015
134	0x3d091f8c	0.03347735
135	0x3d2cb6db	0.042166572
136	0xbd03e165	-0.032197375
137	0x3d011df3	0.031522702
138	0x3ce02d36	0.027365308
139	0x3cb0d700	0.021586895
140	0x3c32b3ee	0.010907156
141	0x3aa96d30	0.0012926217
142	0x3cca9441	0.024728896
143	0xba846a0d	-0.0010102406
144	0xbb3fdc8b	-0.002927574
145	0x3d132da9	0.035932217
146	0xbc1cdf33	-0.009574699
147	0x3cacde5a	0.02110212
148	0x3c3deda1	0.0115923
149	0x3ced55bc	0.028971545
150	0xbccd2127	-0.025040222
151	0xba13a466	-0.0005632102
152	0xbca29dd2	-0.019850645
153	0x3b95df78	0.0045737587
154	0xbc1b5bf1	-0.00948237
155	0x3ca387d3	0.019962227
156	0x3c8434cb	0.016138455
157	0x3b9ccc74	0.004785115
158	0xbc29d864	-0.010366533
159	0x3c44dc04	0.012015346
160	0xbb21452f	-0.0024607887
161	0x3cff5cec	0.031172238
162	0x3b80c2c5	0.0039294683
163	0x3ab532e1	0.0013824367
164	0xbba42b40	-0.0050100386
165	0xbc4dc7da	-0.012559855
166	0x3d521969	0.051293764
167	0x3bac5375	0.0052589723
168	0x3cb68ee5	0.022284934
169	0xbc47e0ea	-0.01219962
170	0x3d286316	0.04111012
171	0xbc4c0bc9	-0.012453982
172	0x3c3974c7	0.011319346
173	0xbc2ad4d3	-0.010426718
174	0xbb38baa8	-0.0028187428
175	0x3cf131c1	0.02944267
176	0xbc3e8099	-0.01162734
177	0x3ac9cbf6	0.0015395868
178	0x3d1b1688	0.037863284
179	0x39577a81	0.00020549634
180	0x3cb87cc6	0.022520434
181	0xbc95044d	-0.018190527
182	0x3c9165e9	0.01774879
183	0xbc50db9d	-0.012747672
184	0xb97aa8d3	-0.0002390475
185	0xbb61225f	-0.0034352762
186	0xbd0671c4	-0.03282334
187	0xbd3281ed	-0.043580938
188	0x3d5a1829	0.053245697
189	0xbc39cff6	-0.011341086
190	0x3bbd3ab5	0.0057748207
191	0x3c8a664c	0.016894482
192	0x3bfbcdab	0.0076844296
193	0xbbd07041	-0.006361038
194	0xbc921c90	-0.017835885
195	0x3c4ba3ce	0.012429191
196	0xbab68ab3	-0.0013926834
197	0x3ce2cfa1	0.027686896
198	0x3bfbaec9	0.007680748
199	0xbc222b59	-0.00989803
200	0xbc2e187d	-0.010625956
201	0x3c147559	0.009061181
202	0x3a88de28	0.0010442184
203	0x3c84e6cb	0.016223332
204	0x3b661edf	0.0035113615
205	0x3badac66	0.0053000925
206	0xbc887295	-0.0166562
207	0x3c1d30cd	0.009594155
208	0xbc4698a7	-0.012121356
209	0x3b1b086a	0.0023656138
210	0xba98e0cd	-0.0011663676
211	0x3b895789	0.004191343
212	0x3c0728f7	0.008249513
213	0x3b076106	0.0020657196
214	0xbc0d57f1	-0.008626924
215	0xbc537025	-0.012905155
216	0xbbdea969	-0.0067950976
217	0xbd48cf14	-0.04902561
218	0xbd0dae33	-0.034589957
219	0x3c79d598	0.015248679
220	0xbcec6bbf	-0.028859971
221	0xbc69a8bc	-0.014261421
222	0xbcb525f3	-0.022112822
223	0x3b94d782	0.004542292
224	0xbb368f3d	-0.0027856373
225	0xbbaa7177	-0.0052015143
226	0xbbe67ba6	-0.007033783
227	0x3c036733	0.00802021
228	0xbbc64f81	-0.006051958
229	0x3c66ddb6	0.014090946
230	0x3c97288c	0.018451951
231	0x3c72a2ab	0.014809291
232	0x3d309036	0.04310628
233	0x3ccd0d7f	0.02503085
234	0xbc9cbcd7	-0.019133015
235	0x3ad2d235	0.0016084375
236	0x3cb042fa	0.021516312
237	0x3c58b724	0.013227258
238	0x3c512644	0.012765471
239	0x3b4defea	0.0031423518
240	0xbc90578a	-0.017619867
241	0xbd062650	-0.03275138
242	0xbcc87a7d	-0.02447247
243	0x3b93483a	0.004494694
244	0xbc692f06	-0.014232403
245	0x3b1ae80f	0.0023636853
246	0xbcafb2b6	-0.02144752
247	0xbc843b0d	-0.016141439
248	0xbd032778	-0.032020062
249	0x3c93155e	0.017954525
250	0x3ca28295	0.019837657
251	0xbca0bf01	-0.019622328
252	0xbcb5c6a5	-0.022189448
253	0xbcdb8ff1	-0.026802035
254	0xbbc41e05	-0.005985024
255	0x3ccee379	0.025254952

param_4 f4 [64, 256]
0	0x3e1ca35b	0.1529669
1	0xbd4cee7b	-0.05003212
2	0x3d685d22	0.056729443
3	0x3dcc6f77	0.09982198
4	0xbd03455d	-0.03204857
5	0xbdd6dc95	-0.104912914
6	0xbdb8d234	-0.09024468
7	0x3bf0342e	0.007330439
8	0xbe8a2b8a	-0.26986343
9	0x3e36e53f	0.17860888
10	0xbd2da719	-0.042395685
11	0x3ec9774c	0.3934883
12	0xbe52e74f	-0.2059605
13	0xbec5b8fc	-0.38617694
14	0x3e12e6bc	0.1434583
15	0x3d41fe59	0.047361705
16	0x3c461565	0.012090062
17	0x3e9d6fda	0.30749398
18	0xbd0905c8	-0.03345278
19	0xbe8dfa04	-0.2772981
20	0x3e17b087	0.14813434
21	0x3d77e961	0.0605253
22	0xbe838f92	-0.25695473
23	0x3d4709d5	0.04859336
24	0x3e616696	0.2201179
25	0x3c13ee41	0.009028972
26	0xbe4038db	-0.18771689
27	0x3e2d8034	0.16943437
28	0x3dbeec28	0.09322387
29	0x3d410243	0.047121298
30	0x3c9fa7f2	0.019489262
31	0xbea1ea3b	-0.31624016
32	0xbd78f4b5	-0.060780246
33	0x3eb83409	0.359772
34	0xbe1eef19	-0.15520896
35	0x3e1729b1	0.14761998
36	0x3cd80429	0.026369171
37	0x3d96abd8	0.07356995
38	0xbe737a18	-0.23777044
39	0xbe9f238e	-0.31081814
40	0x3e8d5f98	0.27611995
41	0x3c092e6c	0.008372884
42	0x3d54b096	0.051926218
43	0xbd84ebf2	-0.064903155
44	0xbe8de2ea	-0.27712184
45	0xbd30b5c4	-0.043142095
46	0x3e4a366e	0.19747326
47	0x3d89bbd4	0.067252785
48	0xbda28f31	-0.07937468
49	0x3e22bb81	0.1589184
50	0xbe6f468d	-0.23366757
51	0xbdf5e7e8	-0.12007123
52	0x3e08cfcb	0.13360517
53	0xbe154c89	-0.14579977
54	0x3e9fdb14	0.3122183
55	0x3d36207e	0.04446458
56	0x3e92e75b	0.28692135
57	0xbe67857a	-0.22609511
58	0x3d7c641a	0.0616189
59	0x3db43f87	0.088011794
60	0xbd2f444e	-0.04278975
61	0xbe55fa5f	-0.2089629
62	0x3dbc3207	0.091892295
63	0xbdccdecf	-0.10003435
64	0x3c9658fa	0.018352974
65	0xbc840a19	-0.016118096
66	0x3c609444	0.013707224
67	0xbe253290	-0.1613257
68	0x3dc61fe5	0.09674052
69	0x3e0f9df6	0.14025101
70	0xbe8b1020	-0.2716074
71	0x3e84ffe5	0.25976482
72	0xbe9f7c34	-0.31149447
73	0x3e55df83	0.20886044
74	0xbe1363a8	-0.14393485
75	0xbe03d046	-0.12872419
76	0xbcccad56	-0.024984997
77	0xbe3e3cf3	-0.18577938
78	0x3e0d86cd	0.13820954
79	0x3cb37ceb	0.021910151
80	0x3c366958	0.011133514
81	0xbd0aef78	-0.03391978
82	0xbdbfad59	-0.09359235
83	0x3c5210a0	0.0128213465
84	0xbe148bf1	-0.14506508
85	0xbd5e40e3	-0.0542611
86	0xbdb641ed	-0.08899293
87	0xbe68ba29	-0.22727264
88	0x3b17401f	0.002307899
89	0xbe550c01	-0.2080536
90	0x3db68dad	0.08913741
91	0xbe79f405	-0.24409492
92	0xbddb07ba	-0.10694833
93	0xbd076632	-0.033056445
94	0x3e12e053	0.14343385
95	0xbe778cb9	-0.24174775
96	0xbe1ab7b0	-0.15109134
97	0xbdc35192	-0.09537043
98	0x3da7ed29	0.081995316
99	0xbe257a02	-0.16159824
100	0xbe03ce71	-0.1287172
101	0xbe56a86a	-0.20962682
102	0xbe99de19	-0.3005226
103	0x3e723e36	0.23656544
104	0xbcd3eb9b	-0.025869181
105	0xbece406c	-0.40283525
106	0x3d05fc99	0.0327116
107	0x3e696172	0.22791079
108	0xbe3f6971	-0.18692566
109	0x3da17cac	0.078851074
110	0x3e92d90f	0.28681228
111	0x3e7f279d	0.24917455
112	0x3d1b4b96	0.03791388
113	0x3c94f69e	0.018184002
114	0x3e80cd2e	0.2515654
115	0xbdcbe6c1	-0.09956122
116	0x3e232619	0.15932502
117	0xbe510336	-0.20411381
118	0xbd4aafd0	-0.049484074
119	0x3e23f8ab	0.16012828
120	0xbd2e626c	-0.04257433
121	0xbe640ee4	-0.22271305
122	0xbd7d9867	-0.06191292
123	0xbd3abee3	-0.0455922
124	0x3d1842a4	0.03717293
125	0xbdc47141	-0.09591914
126	0x3e8392a4	0.25697815
127	0xbd90d909	-0.07072646
128	0x3e0bace1	0.13640167
129	0x3ecaec92	0.39633614
130	0x3ebc9c64	0.36838067
131	0xbddab731	-0.10679472
132	0xbe6c8b22	-0.2309995
133	0x3ea8d218	0.3297279
134	0xbdac8db0	-0.08425462
135	0xbeab8224	-0.33497727
136	0x3da03127	0.07821875
137	0xbe1754aa	-0.1477839
138	0xbe41dd5c	-0.18932098
139	0xbe4b6c5d	-0.19865556
140	0xbdf8ae80	-0.12142658
141	0xbde3c263	-0.11121061
142	0xbe8c3d61	-0.27390578
143	0xbbca3fac	-0.006172141
144	0x3e58d6a0	0.21175623
145	0x3d83f407	0.06443029
146	0xbe0b37be	-0.13595483
147	0xbe561a50	-0.20908475
148	0xbd44d201	-0.048051838
149	0xbcd536f9	-0.02602719
150	0xbe9fe216	-0.31227177
151	0x3d9c7b6a	0.07640727
152	0x3e539231	0.20661236
153	0x3df144ad	0.11780677
154	0xbc3d686e	-0.0115605425
155	0xbd341e15	-0.043974
156	0x3d12748a	0.03575567
157	0x3e9bb689	0.304127
158	0x3d1b494f	0.03791171
159	0xbd8b7613	-0.0680963
160	0x3d2581cc	0.040406987
161	0x3d89a8af	0.06721627
162	0x3df7b0b8	0.12094253
163	0xbde2c90e	-0.110735044
164	0x3bf7a4c0	0.0075574815
165	0xbda5f5fc	-0.081035584
166	0x3e9acb47	0.30233213
167	0x3e5451fd	0.20734401
168	0xbd854105	-0.06506542
169	0xbd6fdee9	-0.058562193
170	0x3e04866c	0.12941903
171	0x3ed32982	0.41242605
172	0x3dbab9a2	0.09117438
173	0xbe7c8ddf	-0.24663495
174	0x3cba6bac	0.02275642
175	0x3e96465d	0.29350558
176	0xbe21093c	-0.15726179
177	0xbe671be0	-0.22569227
178	0xbdf80dfb	-0.121120416
179	0x3e04659c	0.12929386
180	0xbe513cd7	-0.20433365
181	0xbd08b857	-0.033378925
182	0x3e0b80c8	0.13623345
183	0xbdcd99ca	-0.100390986
184	0xbd9b916c	-0.075960964
185	0x3e454d9d	0.19267888
186	0xbc5a084d	-0.013307643
187	0x3d9f4cec	0.077783436
188	0xbdc8142b	-0.09769472
189	0x3ddd55b7	0.108073644
190	0xbe170371	-0.14747407
191	0xbe8ed3de	-0.27896017
192	0xbc32c191	-0.010910408
193	0x3e351458	0.17683542
194	0x3e0e88ad	0.13919325
195	0xbc077517	-0.0082676625
196	0x3b969166	0.0045949696
197	0x3e559c16	0.20860323
198	0x3cc9b01e	0.024620112
199	0xbea035fb	-0.31291184
200	0xbe2a3a5e	-0.16623828
201	0xbef0ed56	-0.47056073
202	0xbe6abdb0	-0.22923923
203	0x3e10995d	0.14121003
204	0xbdcbfc1e	-0.09960197
205	0xbca88ec4	-0.020575888
206	0xbd85b749	-0.065290995
207	0x3e6fd99e	0.23422858
208	0xbd9cd360	-0.07657504
209	0xbeab6e40	-0.33482552
210	0x3e87227d	0.263935
211	0xbdde6d4b	-0.1086069
212	0x3df2bf0f	0.11852848
213	0x3f118629	0.5684534
214	0x3de5bccb	0.1121765
215	0xbd1925a0	-0.037389398
216	0x3c1b0c3c	0.009463366
217	0x3e169d7e	0.14708516
218	0xbc1ca938	-0.009561829
219	0xbebfc308	-0.37453485
220	0x3db70e9e	0.08938335
221	0x3c9ceffb	0.0191574
222	0xbd94e126	-0.07269506
223	0xbddc5c13	-0.10759749
224	0xbe1e9599	-0.15486754
225	0xbd5e5272	-0.054277845
226	0x3c1e484d	0.009660793
227	0xbc43efe7	-0.011959053
228	0x3cf0733a	0.02935182
229	0x3e71c93e	0.23611924
230	0x3ded6156	0.11590831
231	0xbe883bf6	-0.26608247
232	0xbd1f7fe1	-0.038940314
233	0x3dfb5bd7	0.122733764
234	0xbd1ca76a	-0.038245596
235	0xbd938807	-0.072036795
236	0xbd927cea	-0.07152732
237	0xbe1fe9cd	-0.15616532
238	0x3d39e052	0.045379944
239	0x3ea8c407	0.32962057
240	0xbe2e9eef	-0.17052816
241	0xbce4b3b7	-0.027917726
242	0x3ed5f70a	0.41790038
243	0x3eb58af6	0.3545758
244	0x3e5a75a4	0.21333939
245	0xbe1c9241	-0.15290166
246	0xbc9a1d3f	-0.018812774
247	0x3e2b6be1	0.16740371
248	0x3dd9e804	0.106399566
249	0x3b4937f4	0.0030703517
250	0x3e0232b0	0.12714648
251	0x3d54ec26	0.05198302
252	0xbe43a95d	-0.19107576
253	0x3dde6a87	0.10860162
254	0x3e5bb03f	0.21453951
255	0x3da27eed	0.079343654

param_5 f4 [1, 256]
0	0xbae2d1eb	-0.0017304992
1	0x3a1b0af1	0.0005914411
2	0xbbe49f4b	-0.006976997
3	0x3bc5438b	0.0060200146
4	0xbb458d67	-0.0030144097
5	0x3c05d236	0.008167794
6	0x3bad9b7a	0.0052980753
7	0x3bcf54fe	0.0063272705
8	0xba46ec09	-0.00075882726
9	0xbb45f51a	-0.0030205906
10	0x00000000	0.0
11	0xbc8a6060	-0.016891658
12	0x3bb38330	0.0054782853
13	0xbb4f30a9	-0.0031614697
14	0x00000000	0.0
15	0x3b986ed9	0.004651886
16	0xbaf29a14	-0.0018509054
17	0xbb80ca6c	-0.0039303806
18	0x3b0c3175	0.0021391783
19	0x3bc3136b	0.0059532425
20	0xbbee869c	-0.0072792303
21	0xb9080a72	-0.00012973862
22	0xbae4d209	-0.0017457615
23	0x3bbd8036	0.005783106
24	0xbab16c2d	-0.0013536267
25	0x3c29bfed	0.0103607
26	0xba223f73	-0.0006189264
27	0xbc00569b	-0.007833148
28	0xbab2760f	-0.0013615506
29	0xbc1fe157	-0.009758315
30	0x3ba92f3e	0.0051631024
31	0x3c0bd70c	0.008535158
32	0xbb93ec8c	-0.0045142826
33	0x3c72f4b7	0.014828852
34	0x3c0d8795	0.008638282
35	0xba683114	-0.0008857411
36	0x38900e97	6.869173e-05
37	0xbbcca2ab	-0.0062449775
38	0x3a9295b2	0.0011183529
39	0xbba1c7a1	-0.0049371277
40	0x3a99e267	0.0011740447
41	0xbb5b6c3e	-0.0033481265
42	0xbb88fbf0	-0.004180424
43	0xbbf0ebcb	-0.0073523275
44	0xbb603e67	-0.0034216882
45	0x3b8b9125	0.004259246
46	0xbb0253a3	-0.0019886277
47	0x3c3aeb7b	0.011408682
48	0xbaae124e	-0.0013280602
49	0xbc50c6bc	-0.0127426945
50	0x3ba5b97b	0.0050575114
51	0x3a212b41	0.0006148108
52	0x3c45e72a	0.01207904
53	0xbb8655a4	-0.0040995646
54	0xba9ecd1f	-0.0012115574
55	0x3a5d1d6c	0.0008434865
56	0x3b62ca38	0.0034605395
57	0xba90c243	-0.0011044223
58	0xbb897333	-0.004194641
59	0xbb5a6af4	-0.003332791
60	0x3a1a5db7	0.00058885984
61	0x3c8143d9	0.015779423
62	0x00000000	0.0
63	0xbb8e57a3	-0.004343943
64	0xbb5a08fb	-0.0033269513
65	0x3b9a5773	0.004710132
66	0x3a375209	0.000699312
67	0xb977c71e	-0.00023629933
68	0x3c2d0c38	0.010561995
69	0x3bcb6531	0.0062071313
70	0x3b23c9b8	0.002499206
71	0x3b207546	0.0024483963
72	0xbbb26134	-0.0054437164
73	0xbbff2670	-0.0077865645
74	0x3ad47d5e	0.0016211679
75	0xbb89fead	-0.004211268
76	0x3ab73f86	0.0013980723
77	0xbbc36ed0	-0.0059641376
78	0xbb93cf9b	-0.0045108325
79	0x3c4ab9c9	0.012373396
80	0xbba9283d	-0.0051622675
81	0xb92164c5	-0.00015391696
82	0x3ae04f8c	0.001711355
83	0xbbd77118	-0.006574761
84	0xbb577bb1	-0.0032880122
85	0x3be95dac	0.0071217623
86	0xbba676e4	-0.005080091
87	0xbb82c94e	-0.0039912825
88	0xbc49789f	-0.012296825
89	0x3c2e1d68	0.010627128
90	0x3c0d7aa6	0.008635199
91	0x3c06d07f	0.00822842
92	0xbb4540d4	-0.0030098455
93	0xbb01cbf5	-0.0019805406
94	0x3bb8d615	0.005640755
95	0x3a0af169	0.0005300255
96	0xbc24b123	-0.010051998
97	0xba9b1fdd	-0.0011835058
98	0x3bb1e87f	0.005429327
99	0xbb0c3880	-0.0021395981
100	0xba8eb9f9	-0.0010889164
101	0x3705e949	7.981734e-06
102	0xbbe0a23f	-0.0068552787
103	0x3b8a6477	0.004223402
104	0xb7ca7c01	-2.413802e-05
105	0xba69d359	-0.0008919738
106	0x3a9b12b1	0.0011831132
107	0xbb48d763	-0.0030645959
108	0xbad3a888	-0.0016148249
109	0x3bcee066	0.0063133715
110	0x3ae540df	0.0017490647
111	0x3baa376b	0.0051945946
112	0xbc15b611	-0.009137646
113	0xbbeb04c3	-0.0071721985
114	0x3b9af855	0.0047293105
115	0xbbe8cfb8	-0.00710484
116	0xbb39f713	-0.0028376027
117	0xbac16182	-0.0014753791
118	0xbbb3d3fb	-0.0054879165
119	0x3af67e6d	0.0018805988
120	0xbc97121c	-0.018441252
121	0xbb7074c7	-0.0036690698
122	0x3c38f749	0.011289426
123	0x3b621da7	0.0034502537
124	0x3bc1027a	0.005890188
125	0xbb2bc146	-0.002620773
126	0xba565574	-0.00081761857
127	0x3a53687e	0.0008064582
128	0xbb2a2117	-0.0025959664
129	0xbaeda6da	-0.0018131391
130	0xbb15b622	-0.0022844155
131	0x00000000	0.0
132	0xbb9997dc	-0.0046872925
133	0x396e3838	0.00022718392
134	0xbb033b6d	-0.0020024434
135	0xba1ccfda	-0.00059819
136	0xba1d9c77	-0.000601239
137	0xbb502c8f	-0.003176484
138	0x3c22bdc2	0.009932937
139	0xbbeb7e54	-0.0071866903
140	0xb82940c0	-4.0353043e-05
141	0xbb38a781	-0.0028176012
142	0xbbfe31e7	-0.0077574137
143	0x3ab03708	0.0013444135
144	0xbbcc9774	-0.0062436406
145	0xbabb1a36	-0.0014274779
146	0x3bdf4e76	0.006814773
147	0xbc2b1358	-0.010441624
148	0xbb26b479	-0.002543716
149	0x3b1fac37	0.0024364123
150	0xbabefc7f	-0.0014571099
151	0x3c2e8895	0.010652681
152	0xbb028d96	-0.0019920818
153	0x3af8990d	0.0018966511
154	0xbbf897ac	-0.00758644
155	0xbb9c4cf0	-0.004769914
156	0xbbd70d44	-0.0065628607
157	0x3b6ee27a	0.0036450909
158	0x3bdb290d	0.0066882432
159	0x3ab05be9	0.0013455126
160	0x3c02c9ec	0.007982712
161	0x3c00212f	0.007820412
162	0xba63c858	-0.00086892163
163	0xbaca5a47	-0.0015438282
164	0xbab95b92	-0.001414167
165	0xbc5a6107	-0.013328797
166	0x3b5d6343	0.0033781088
167	0x00000000	0.0
168	0xbbd677fb	-0.0065450645
169	0x3b0f3825	0.0021853533
170	0x3bdc6df1	0.006726973
171	0x3c09633b	0.008385475
172	0x3c43088c	0.011903893
173	0x3b824206	0.0039751558
174	0xbb432eb3	-0.0029782474
175	0xbb860dd1	-0.0040910025
176	0x3afc6efa	0.0019259148
177	0xb9e09f94	-0.00042843504
178	0xb708646d	-8.129614e-06
179	0x3b42cc23	0.0029723726
180	0xbaf1d8af	-0.0018451418
181	0xbbc925bd	-0.006138532
182	0x38dd6368	0.00010556617
183	0xbb414294	-0.0029489147
184	0x3b59aa05	0.0033212912
185	0xba004228	-0.00048926705
186	0xbaf18374	-0.0018426017
187	0x3b616955	0.0034395058
188	0xbbf673ff	-0.007521152
189	0x3af19618	0.0018431572
190	0xbb0017fc	-0.0019545546
191	0x3b6cc63a	0.0036128894
192	0x3a5f9f6d	0.0008530531
193	0x37a295c7	1.938165e-05
194	0xbc19e756	-0.009393534
195	0xbb0e9972	-0.002175894
196	0x3b5979a0	0.0033184066
197	0x395f405a	0.0002129091
198	0x3b60a662	0.003427886
199	0x3b2ef83f	0.002669826
200	0x3b058856	0.0020375452
201	0xbb4a3cfa	-0.0030859099
202	0xbac3bd8f	-0.0014933812
203	0x3a29d2dc	0.0006478259
204	0xbb562c60	-0.0032680258
205	0xbc3a2ced	-0.01136325
206	0xbbbc9fde	-0.0057563623
207	0x3babb1e2	0.005239711
208	0xbade43ad	-0.0016957425
209	0xbb1fd8b0	-0.002439063
210	0xbc185f8f	-0.009300127
211	0xba6458f4	-0.0008710765
212	0xbbb96e35	-0.0056588897
213	0x3b99ef18	0.0046976916
214	0xbb5863ff	-0.0033018587
215	0xbc042578	-0.008065574
216	0xbc13af33	-0.009013939
217	0xbc0b34c0	-0.008496463
218	0xba2717b3	-0.0006374076
219	0xbb099744	-0.0020994702
220	0x3ba994b8	0.0051751994
221	0x3bd19f4b	0.006397163
222	0x3add55e4	0.0016886559
223	0xbb0d9243	-0.0021602071
224	0xbaeb8d04	-0.0017971103
225	0xbc75cbfa	-0.015002245
226	0x3afde289	0.0019369881
227	0x3a6d759c	0.00090583577
228	0x3b3e67a0	0.0029053465
229	0x3b9106c3	0.004425855
230	0x3bdd6212	0.0067560757
231	0xbad98b6d	-0.0016597338
232	0xbbf1c304	-0.007377984
233	0x3a667353	0.00087909884
234	0xbbd3af15	-0.0064600804
235	0x3ba73c1a	0.0051036
236	0x3b90f37e	0.004423558
237	0xba57141c	-0.00082045957
238	0xb8fbb66d	-0.00012002592
239	0x3b372d35	0.002795053
240	0xba3fde0c	-0.00073191593
241	0xbbc1ef07	-0.005918387
242	0xbb694066	-0.0035591363
243	0xbb54a4c1	-0.0032446834
244	0x3ba8da32	0.005152964
245	0x3bf848ff	0.007577061
246	0xbc64d2b4	-0.013966251
247	0xb9bf10d0	-0.00036442885
248	0xbbb9c2a6	-0.005668956
249	0xbb7c0131	-0.0038452859
250	0x39ec8988	0.00045115897
251	0xba481d56	-0.0007633766
252	0x3b289746	0.0025724932
253	0x3b0ed9a6	0.002179721
254	0x3ba12207	0.0049173865
255	0xbb3dad6c	-0.0028942479

param_6 f4 [256, 64]
0	0xbd39739f	-0.04527628
1	0x3df88579	0.12134833
2	0x3d450c00	0.048107147
3	0x3c436b43	0.011927429
4	0x3cb45ab3	0.022015905
5	0xbd278b22	-0.04090417
6	0xbcf0b41e	-0.029382762
7	0xbd410fc5	-0.04713418
8	0x3d837b88	0.06420046
9	0x3e191e00	0.1495285
10	0x3c96768f	0.01836708
11	0xbd821b17	-0.06352823
12	0xbd48dad0	-0.0490368
13	0x3d0eb8ec	0.034844324
14	0x3bbfeb5f	0.005856916
15	0xbd17dfde	-0.03707873
16	0xbb6744af	-0.0035288741
17	0xbd24daaf	-0.040247615
18	0xbe45f1eb	-0.19330566
19	0x3d0d78c7	0.03453901
20	0x3cb546d3	0.022128498
21	0xbdbe459c	-0.09290621
22	0xbd41f1e2	-0.047349818
23	0xbd3154a2	-0.043293603
24	0xba86bdee	-0.0010279992
25	0xbd93bb86	-0.07213502
26	0x3d8fc75d	0.070204474
27	0xbe4cfb0c	-0.20017642
28	0xbda21ae1	-0.07915283
29	0xbc373274	-0.011181463
30	0xbc801ad0	-0.015637785
31	0xbc20177b	-0.009771223
32	0x3df2214b	0.118227564
33	0x3bed2981	0.0072376137
34	0x3c9638c6	0.018337619
35	0x3d875c74	0.06609431
36	0x3d81cfb0	0.06338441
37	0x3c746b14	0.014918108
38	0x3c6fe72b	0.014642517
39	0xbd2579a6	-0.040399216
40	0x3cb18a68	0.021672443
41	0xbd959c02	-0.07305147
42	0xbd9c1152	-0.07620491
43	0xbd47beda	-0.048765995
44	0x3d848ab0	0.06471765
45	0xbdc2ba6c	-0.095082134
46	0x3d5f6080	0.05453539
47	0xbcef5995	-0.02921752
48	0x3d31cf23	0.04341043
49	0xbe204cfd	-0.15654369
50	0xbb997c67	-0.0046840194
51	0x3b8b902a	0.004259129
52	0xbc88be0c	-0.016692184
53	0xbd4c207a	-0.04983566
54	0xbdb92925	-0.09041051
55	0xbda4ae6d	-0.080410816
56	0x3d869fbf	0.06573438
57	0x3e407c81	0.18797494
58	0x3de7e042	0.11322071
59	0xbdb983d6	-0.09058349
60	0xbd236b16	-0.039897047
61	0xbd88f29b	-0.06686898
62	0xbd8fe99b	-0.070269786
63	0xbc67ad30	-0.014140412
64	0x3de68446	0.11255698
65	0xbcdee8c9	-0.02721061
66	0xbd1d9786	-0.038474582
67	0xbd43ebf5	-0.047832448
68	0xbdac8078	-0.08422941
69	0x3e28e60b	0.16494004
70	0xbb74e198	-0.003736591
71	0x3ce13fd7	0.027496262
72	0x3c94517d	0.018105263
73	0xbc6d9274	-0.014500249
74	0x3dc4b0c8	0.09604031
75	0xbc1c36ba	-0.009534532
76	0x3cb5d491	0.022196086
77	0x3db49281	0.08817006
78	0xbccfeab5	-0.025380472
79	0x3defc47a	0.11707397
80	0x3d5792f0	0.052630365
81	0xbe21998f	-0.15781234
82	0xbd93f959	-0.07225294
83	0xbdf113ba	-0.11771341
84	0x3ca0848b	0.019594451
85	0x3d024036	0.031799518
86	0x3da16092	0.078797475
87	0x3d9d783b	0.07688948
88	0xbe55b820	-0.2087102
89	0x3da323d1	0.07965816
90	0xbd43d35e	-0.047808997
91	0xbd360b0e	-0.044444136
92	0x3d3d8cf5	0.046277005
93	0xbe6bf4b0	-0.2304256
94	0xbdb5b36e	-0.08872114
95	0xbde48f02	-0.11160089
96	0x3dabb7fe	0.08384703
97	0xbd4d6041	-0.050140623
98	0xbddf20d2	-0.10894932
99	0xbd836880	-0.06416416
100	0x3db5fa94	0.088856846
101	0x3dc16a76	0.09444134
102	0xbd398050	-0.045288384
103	0xbdb6b7bd	-0.08921764
104	0xbde71467	-0.11283188
105	0xbe18caea	-0.14921156
106	0x3ddcbea9	0.10778553
107	0x3d243e59	0.04009852
108	0x3d38b712	0.045096464
109	0x3e3cc107	0.18433009
110	0x3ddb15e3	0.10697534
111	0xbe223337	-0.1583985
112	0xbd297a9a	-0.041376688
113	0xbdcaeba1	-0.09908224
114	0x3da8dd98	0.08245391
115	0xbde35d9f	-0.11101841
116	0xbdfdb593	-0.12388148
117	0xbdc87883	-0.09788611
118	0x3d1ce094	0.038300112
119	0x3df601d8	0.120120704
120	0xbc9dbf3b	-0.019256225
121	0x3c6f4c2c	0.014605563
122	0xbdc3fdae	-0.0956987
123	0xbdb3ad49	-0.08773286
124	0x3cb76056	0.022384804
125	0x3d95c4b6	0.0731291
126	0x3d03fd7f	0.032224175
127	0xbe06ca05	-0.13163002
128	0x3d740a9f	0.05958044
129	0xbd2a2953	-0.041543316
130	0x3e09ca6a	0.13456121
131	0xbc914e14	-0.017737426
132	0xbb8a1062	-0.0042133788
133	0xba10bb66	-0.00055210886
134	0xbce13035	-0.027488807
135	0xbd1b1206	-0.037858985
136	0xbdff37a8	-0.124617875
137	0xbe0feab5	-0.14054377
138	0x3d50f727	0.051016953
139	0xbd8b8e64	-0.06814268
140	0x3dcce39e	0.10004352
141	0xbded6401	-0.1159134
142	0xbc1ee7ec	-0.009698849
143	0xbcab2508	-0.020891681
144	0x3d89519a	0.067050174
145	0x3b90f21e	0.004423394
146	0x3e273ae7	0.16331063
147	0xbd33be17	-0.043882456
148	0x3e16e9d0	0.1473763
149	0xbd0b156d	-0.03395598
150	0x3ddb6fa6	0.107146546
151	0xbe00f3ef	-0.12593053
152	0xbdbd8623	-0.092541
153	0x3ad4862b	0.0016214302
154	0x3dae191e	0.085008845
155	0xbd84c3c3	-0.06482651
156	0xbe01e41f	-0.12684678
157	0xbe0b7d09	-0.13621916
158	0xbb84a450	-0.004047908
159	0xbe009c4a	-0.1255962
160	0x3e20bad6	0.15696272
161	0x3e7140bf	0.23559855
162	0xbdbde24d	-0.09271679
163	0x3c88d917	0.016705079
164	0x3d6a9ce2	0.05727852
165	0xbca19fdd	-0.019729549
166	0xbdf3f406	-0.11911778
167	0x3c210128	0.009826936
168	0xbda247b2	-0.07923831
169	0xbdccb42c	-0.099953026
170	0x3dae7dbe	0.08520077
171	0xbdcb4199	-0.09924621
172	0xbd736898	-0.05942592
173	0xbd86c5c3	-0.06580689
174	0x3dfa016c	0.122073025
175	0x3e38010c	0.1796915
176	0xbda42ec2	-0.08016731
177	0x3d8e4794	0.06947246
178	0xbd8b070e	-0.06788455
179	0xbe3c90eb	-0.18414657
180	0xbc2a5212	-0.010395544
181	0xbce04e70	-0.027381152
182	0xbc35b6c8	-0.011090942
183	0xbd91d634	-0.07120934
184	0xbdb5666e	-0.088574275
185	0xbdb6312b	-0.08896097
186	0x3cd7a4f0	0.026323766
187	0xbd2e3a14	-0.042535856
188	0xbcad43a4	-0.021150418
189	0x3d3a58e6	0.045494936
190	0x3dc608c4	0.09669641
191	0xbc9c4946	-0.019077908
192	0xbc564070	-0.013076887
193	0xbd6607b6	-0.056159697
194	0xbe5e587d	-0.21713443
195	0xbcd569cc	-0.026051424
196	0xbd43b895	-0.047783453
197	0x3d8b2688	0.06794459
198	0xbda4e1eb	-0.08050903
199	0x3d31ada7	0.0433785
200	0xbd09c19c	-0.033631906
201	0x3d4f3b28	0.050593525
202	0xbd1deaa0	-0.038553834
203	0x3c8641d5	0.016388813
204	0x3e652501	0.22377397
205	0xbd6fefb5	-0.05857821
206	0xbe41ea68	-0.18937075
207	0xbc98a340	-0.018632531
208	0x3e1d79be	0.15378472
209	0x3e0460fa	0.12927619
210	0xbe313418	-0.17305028
211	0x3d8fffff	0.07031249
212	0xbd8db6df	-0.069196455
213	0x3cf75cb3	0.03019557
214	0x3dc69882	0.09697057
215	0x3d3b91a5	0.045793194
216	0xbdb585fa	-0.088634446
217	0x3d58329c	0.05278264
218	0xbdaf7309	-0.08566863
219	0xbdc15d42	-0.09441616
220	0xbd64f14c	-0.05589418
221	0x3cd49c35	0.025953392
222	0xbd613215	-0.054979403
223	0xbd1dcd51	-0.038525883
224	0x3da93153	0.08261361
225	0x3ddd22f4	0.107976824
226	0xbc1311f4	-0.008976448
227	0xbd4b658c	-0.04965739
228	0xbdc9fa23	-0.09862163
229	0x3c06daba	0.008230859
230	0xbd8d587d	-0.069016434
231	0xbdbd99a7	-0.092578225
232	0xbd11f1a2	-0.03563083
233	0x3d963abe	0.07335423
234	0xbc83e9ad	-0.016102636
235	0x3dbbe359	0.091742225
236	0x3d8e5d90	0.069514394
237	0xbe360e09	-0.17778791
238	0x3cd6ab4d	0.02620473
239	0x3d0bae5f	0.03410184
240	0xbc4c457a	-0.012467736
241	0x3e09359d	0.13399358
242	0xbccd2a0c	-0.025044464
243	0x3acda85d	0.0015690435
244	0xbc18f406	-0.0093355235
245	0x3cab2fae	0.020896759
246	0xbcefdb1d	-0.029279286
247	0xbd57bbba	-0.052669264
248	0xbe19d96e	-0.15024349
249	0xbe18db6e	-0.14927456
250	0x3d3a8b4f	0.04554301
251	0xbdc1c552	-0.09461464
252	0xbe7d09ea	-0.24710813
253	0xbe02cf32	-0.12774351
254	0x3d1ef234	0.0388052
255	0x3d99d8d8	0.07512063
